data/model/seq2seq.addition.bs128.ed8.hs64.ep25.pth (torch, 245417 bytes, 20 tensors)

encoder.embedding.weight f4 [13, 8]
000000 29 34 e3 be 55 3d 2c 3e 70 f5 88 bf 25 a8 fc 3d
       -0.44375733 0.16820271 -1.0699902 0.123367585
000010 8f e2 a8 3f ef 2a 16 40 b7 dc a7 be 4a 65 1e 3f
       1.319414 2.3463705 -0.3278558 0.61873305
000020 21 ed 96 bf 94 f8 04 3f ef e4 c7 bf 00 10 61 bf
       -1.1791116 0.519418 -1.561674 -0.8791504
000030 a7 2d f5 be 2f 2d 48 3f f0 c6 61 3e 4b 9b 13 be
       -0.47886392 0.78193945 0.22048545 -0.14414708
000040 2b 32 2d bf 6a b9 b8 3e 2f ca c1 bf fe cb a2 3f
       -0.67654675 0.3607896 -1.5139827 1.2718503
000050 19 be 05 bf 48 50 71 3f 65 ff eb be db 58 a0 bd
       -0.5224319 0.94263124 -0.46093288 -0.07829448
000060 71 45 37 be 76 a6 89 3f 7c df be be fe 04 cd be
       -0.17897584 1.0753925 -0.3727988 -0.4004287
000070 df aa 1d 3f 0a 88 11 bf d6 8e 5b bc b6 bf c8 3e
       0.61588854 -0.56848204 -0.013400754 0.39208764
000080 3d 44 a8 bf 54 f4 3c 3f 73 59 04 3e 23 30 13 bf
       -1.3145825 0.73810315 0.12924747 -0.57495326
000090 b6 09 94 3f 7c 30 1a bf 46 06 4f bd 36 63 96 be
       1.1565464 -0.6023023 -0.050543092 -0.29372567
0000a0 b7 ab df 3e d0 5d 54 bd 2c 86 57 3f 2b ac 5d 3d
       0.43685696 -0.05184728 0.84189105 0.05411927
0000b0 80 b8 cb bd a8 81 61 bc 4d 69 5f bf fe 04 a9 3e
       -0.099473 -0.013763823 -0.8727005 0.3301162
0000c0 d1 2f 40 be ad 77 af be 25 0c ab 3f 2d 4d f8 3e
       -0.1876824 -0.34270993 1.3363081 0.4849638
0000d0 06 b4 0c 3e 59 65 cc 3d 30 f8 ee bd 97 b2 a8 3e
       0.13740548 0.09980268 -0.11668432 0.32948753
0000e0 6e 2e 04 3f b3 b9 95 bc 05 b2 d2 be ca 6d 64 3e
       0.51633346 -0.018277025 -0.41151443 0.22307506
0000f0 ae 00 1a bf a6 8b 61 bf 15 18 a3 3e 58 72 01 bf
       -0.6015729 -0.8810371 0.3185431 -0.505651
000100 a8 a9 11 3d d7 27 f7 bf 6e d8 b4 be 37 80 88 be
       0.035562187 -1.9309033 -0.35321373 -0.2666032
000110 60 66 3b 3f a2 27 a2 3d c9 5d dc 3e f0 91 ac 3e
       0.73203087 0.079177156 0.43040302 0.3370509
000120 c6 a3 64 be 85 5c 46 bf d9 42 6e 3f 3e 39 10 be
       -0.223281 -0.77484924 0.9307075 -0.14084336
000130 10 f7 4a be 04 0b eb 3e e1 a0 88 3f 2b e4 98 3e
       -0.1982081 0.45906842 1.0674096 0.29861578
000140 73 a7 fe 3e b0 bf 40 be ea e6 a7 3e 26 73 ba be
       0.4973713 -0.18823123 0.3279336 -0.36415976
000150 b0 0e 6c bf 45 d4 47 be 52 2c 07 bf 5f 70 c1 be
       -0.9220991 -0.19514568 -0.52802 -0.37781045
000160 6c bf 7d 3e 0f d7 34 3f 4d 80 f2 be b4 7f b6 3d
       0.24780053 0.70640653 -0.4736351 0.08911076
000170 ef 56 4c bd 95 42 5f bf 9e fc bf 3e 76 52 a6 3b
       -0.049887594 -0.8721097 0.3749742 0.005075748
000180 da 16 0c 3f 01 69 2c bf c3 18 d7 be ec 92 04 bf
       0.5472237 -0.67347723 -0.4201108 -0.51786685
000190 4b b4 db 3f 8f de 22 3f b3 61 18 3f 13 e6 44 bf
       1.7164396 0.6362085 0.5952408 -0.76913565

encoder.lstm.weight_ih_l0 f4 [128, 8]
000000 f7 9f ca be c7 27 f7 3f ae c8 c2 bf 91 c8 3f bc
       -0.39575168 1.9309014 -1.5217493 -0.011705534
000010 4d f3 a4 3f 86 74 d4 3e 62 60 fa be a0 3b 20 c0
       1.288675 0.4149515 -0.4890166 -2.5036392
000020 eb e2 00 bc 73 01 f2 be b0 b2 4c 3f a7 7b 27 c0
       -0.007866601 -0.4726673 0.79960155 -2.6169221
000030 82 b8 b5 3f c3 57 e3 3c 52 b0 4d bf 52 91 4d 3f
       1.4196932 0.027751809 -0.8034717 0.80299866
000040 bb da e9 be 48 97 2e 3f 5a 09 49 bf 7b 27 a5 3e
       -0.4567469 0.68199587 -0.78529894 0.32256684
000050 1f 51 fe be dc c6 8a 3f 78 0a c4 be 00 8e 74 be
       -0.49671265 1.0841937 -0.38289237 -0.23882294
000060 3c 81 29 3f ba bf 85 bd 2f 86 94 3f 63 61 09 bf
       0.6621282 -0.065307096 1.160345 -0.53664225
000070 85 94 21 bf c7 af 5f bf 06 91 46 3b b2 ad 78 3f
       -0.6311725 -0.8737759 0.0030298843 0.9714004
000080 6d aa 1f 40 72 0a 47 bf b2 d6 0d bf 85 c9 66 bf
       2.494777 -0.77750313 -0.55405724 -0.90151244
000090 a3 cc 86 bd 16 70 b6 be 98 32 83 3e 83 a4 85 bf
       -0.06582 -0.3563239 0.25624537 -1.044083
0000a0 be 46 c2 3f b0 f3 d8 3f 79 40 b8 bf 37 c6 dd 3f
       1.5177839 1.6949368 -1.4394675 1.7326115
0000b0 e1 1c 9c bf c4 aa 84 bf 55 4e 9a bf d2 b7 c0 bf
       -1.2196313 -1.0364614 -1.2055155 -1.5056098
0000c0 6b 60 a5 3f ec 0a 63 bf cd 09 91 be 59 50 55 bf
       1.292005 -0.8868854 -0.2832779 -0.83325726
0000d0 63 9a f1 3e b9 15 0f bf 28 e6 a7 3d ac 37 fb 3c
       0.471881 -0.5589252 0.08198196 0.030666195
0000e0 38 d5 9f 3e 6f 42 90 bd db 01 0e be fe 84 95 3f
       0.3121736 -0.07043921 -0.13867895 1.1681211
0000f0 25 0f 85 be c8 b1 1c 3e bc 3e 74 bf f9 d9 03 3f
       -0.25988117 0.15302193 -0.95408225 0.51504475
000100 a4 e5 81 bf aa ca 6f be d7 6f 4c 3f 1b 42 9f bd
       -1.0148206 -0.23417154 0.79858154 -0.077762805
000110 23 68 bd 3f 58 ca d6 3e 00 bd c1 3e 15 24 fd be
       1.4797405 0.4195125 0.37839508 -0.4944159
000120 98 d6 31 3f 41 f4 27 bf cf bb 41 bf d6 de 56 3f
       0.6946807 -0.65607077 -0.756772 0.8393377
000130 44 4b c5 3e 92 70 0f 40 f2 4d 33 3f 82 4a 97 bf
       0.38533986 2.2412457 0.7004081 -1.1819613
000140 46 73 9c be 13 2e 28 bf c3 78 b9 3e 75 bb a8 3e
       -0.30556697 -0.65695304 0.36224946 0.32955518
000150 62 9b 05 be 21 2e f5 3e 53 a8 2b be 38 88 0e bc
       -0.13047555 0.47886756 -0.1676343 -0.008699469
000160 fc 02 a5 be c8 a0 53 bf 4a 99 e9 3e d6 97 17 bf
       -0.3222884 -0.8266721 0.45624763 -0.5921606
000170 5c 7d a8 3f 0a d6 55 bf 21 7f 05 3f ce 60 46 be
       1.3163257 -0.8352972 0.5214711 -0.19372866
000180 4c 24 aa 3e ab 99 f2 3b c2 91 c4 3e be 1f 53 3b
       0.33230817 0.0074035726 0.38392454 0.0032214965
000190 83 00 91 3e 41 0c 35 bf 3c c1 4a 3e 98 a2 b0 3d
       0.28320703 -0.7072182 0.19800276 0.08624762
0001a0 6b dc 45 bf 42 5c 1c 40 08 88 90 bf b8 cf ff 3e
       -0.77289456 2.443131 -1.1291513 0.49963164
0001b0 64 aa b5 3e bc 1e b1 be de 12 20 bf b0 71 c1 bf
       0.3548156 -0.3459376 -0.6252879 -1.511282
0001c0 ba 91 2f 3f 36 ec 8b be 1c 09 46 3f 39 7b c6 3d
       0.68581736 -0.27328652 0.7735765 0.096914716
0001d0 fa ac 05 3e 17 e3 3b 3f 9d 6d 70 bf 27 5d c0 be
       0.13054267 0.73393387 -0.93917257 -0.3757107
0001e0 d1 3b c6 3d d5 9d 59 bc d2 3c 48 3e ad 07 da be
       0.09679378 -0.013282259 0.19554451 -0.4258398
0001f0 51 ed 3d 3e 76 36 0e bf b7 45 f5 3c b0 a6 63 bc
       0.1854756 -0.5555185 0.02994047 -0.013894722
000200 f0 85 2d bf 77 a3 3f bd 16 ab fe 3d 5b d0 96 3f
       -0.677825 -0.04678675 0.12434976 1.1782335
000210 bf e9 78 bf 13 46 bf 3f cd 12 0f bf 7e 80 21 3e
       -0.9723167 1.494326 -0.5588806 0.15771672
000220 91 0e a5 be 8b b6 5e bf 29 7c d1 3d 94 74 5c 3e
       -0.32237676 -0.8699729 0.1022876 0.21528846
000230 5e b6 22 40 6f 2e 50 3d 88 3f 61 bd 43 fa 30 3d
       2.5423808 0.050825533 -0.05499223 0.04320742
000240 65 83 82 3e 9e 87 4a 3e f1 09 2c bf dc e4 88 3f
       0.2549087 0.19778296 -0.6720267 1.0694842
000250 7e 31 6f bf 60 98 df 3f 8a 84 5e bf 2e e8 8d 3e
       -0.93434894 1.7468376 -0.8692099 0.27716202
000260 8c 3b 95 bf b9 45 8f 3f 32 8f 37 bf 5f 5f 4c 3d
       -1.1658797 1.1193153 -0.71702874 0.04989564
000270 7b 7c 23 3f f1 76 30 3d 2e e1 cf 3e ec 9a c7 3e
       0.6386182 0.04308218 0.40601486 0.38985384
000280 7c 73 19 3f da 38 00 bf 55 ad 7a 3e 99 54 9e 3d
       0.5994184 -0.5008675 0.24480183 0.077309795
000290 24 b2 da be 48 6c a5 be fd ba 93 3e 2a 1f d3 3c
       -0.42714036 -0.32309175 0.28853598 0.025771696
0002a0 90 b6 4c 3d 41 ae b0 3e d7 a4 80 be 90 4f 1a 3f
       0.049978793 0.34507945 -0.25125763 0.6027765
0002b0 bd e9 ec be aa 49 c5 3e a1 c9 3e 3e da 66 0f 3f
       -0.46272078 0.38532764 0.18631603 0.56016314
0002c0 e7 da 4c 3e 9f 7e 09 bf 36 1a 21 3f 51 81 eb be
       0.2000538 -0.53708833 0.6293062 -0.45997098
0002d0 39 b3 8b be f2 ed 0d be f3 b0 05 3e e4 7e ad be
       -0.27285174 -0.138603 0.13055782 -0.33885872
0002e0 8a 4d 80 3b 14 81 59 3e a3 0d 2f 3e b9 3d 54 3e
       0.0039154934 0.21240646 0.17095046 0.2072667
0002f0 d8 83 02 3c ea 18 cd 3c 95 2a cd bd 12 b4 05 be
       0.007966004 0.025036294 -0.100178875 -0.13056973
000300 f9 5f 02 3f 5d ea a6 bf 10 cd 50 3f cb a9 8d bf
       0.5092769 -1.3040272 0.815629 -1.1067442
000310 43 1a 86 3e d4 ac 3c be ec c8 8f 3d fd 1a 5e bf
       0.2619191 -0.18425304 0.07020745 -0.8675993
000320 11 a1 80 3f 9f 22 0c 3e f3 63 46 be be 48 21 3f
       1.0049154 0.13685082 -0.19374065 0.6300162
000330 08 71 8e bf 6f 2f 20 3e b2 31 41 be db 1d f6 3e
       -1.1128244 0.15643094 -0.18866614 0.48069653
000340 50 e8 a0 3f 01 eb 0f bf ff 9d df 3f 3c 73 73 bf
       1.2570896 -0.5621796 1.7470092 -0.9509771
000350 40 e0 30 3f e6 9c 13 c0 88 08 80 3f e6 52 0a 3f
       0.6909218 -2.3064513 1.0002604 0.5403274
000360 79 71 b8 bd d4 7d 09 40 94 46 ca bf 27 42 e4 3e
       -0.09006018 2.148305 -1.5802789 0.4458172
000370 d7 ef 56 bf bb 5d c5 be de 04 c4 bf 1b 25 30 bf
       -0.83959717 -0.38548073 -1.5313985 -0.6880662
000380 7d ff 8b 3e ac 48 38 bd 19 9d a7 bf 02 68 39 3f
       0.2734336 -0.04499118 -1.3094817 0.7242433
000390 9a 36 b2 be 12 ed 36 3f 42 cb 9a 3b 05 ab 81 3f
       -0.34807283 0.7145549 0.0047239373 1.0130316
0003a0 ba 84 34 c0 b9 8e 85 3d 4e 5b ca bd b4 94 87 3f
       -2.820601 0.06521363 -0.09880696 1.0592256
0003b0 7c d5 0d bf 34 00 af 3e 99 8d ab 3e 94 06 e5 3f
       -0.55403876 0.34179842 0.33506468 1.7892632
0003c0 6d 34 80 be 85 0c 2d 3e d1 ab 01 3f eb 6e 74 bf
       -0.25039998 0.16899307 0.50652796 -0.9548175
0003d0 19 11 2a 3f 5a 1b 93 be 45 8e 97 bf fe 85 8c bf
       0.6643234 -0.28731805 -1.1840292 -1.0978391
0003e0 77 38 94 3d 48 c1 f8 be 31 9b 19 bf 0a 30 17 bf
       0.07237332 -0.48584962 -0.6000243 -0.59057677
0003f0 ee cc 02 40 c6 b0 89 be 11 a2 5e bf 42 b5 52 bf
       2.043758 -0.2689268 -0.86966044 -0.8230783

encoder.lstm.weight_hh_l0 f4 [128, 32]
000000 cc 4c 4c bd 78 29 7d bf 86 36 58 bf 5f 8e 68 bf
       -0.049877927 -0.988914 -0.84458196 -0.9084224
000010 1e 7e 62 3f 9f 82 33 3f bd 34 a5 be 81 b9 2e 3d
       0.8847369 0.70121187 -0.322668 0.04265738
000020 70 24 ba 3e 22 33 38 3e 35 96 74 3e 20 4a af be
       0.36355925 0.17988256 0.23885424 -0.3423624
000030 1a 35 3c 3f a1 28 c0 be 76 ee a9 bf 54 5d 64 bf
       0.73518527 -0.37530997 -1.3275898 -0.8920491
000040 2e 80 da be 70 e0 75 3e f0 ca 71 3d 4c e0 9f 3f
       -0.42675918 0.24011397 0.059031427 1.2490325
000050 88 7b 87 bf 52 69 7e 3e 01 87 87 3f 3c af a6 3f
       -1.0584574 0.24844864 1.0588075 1.3022227
000060 93 44 e4 bf 03 5c c4 3e a3 72 2b 3f c8 7d cc 3e
       -1.7833427 0.3835145 0.66971797 0.39939713
000070 8c e8 aa 3d e2 ab 1f bf 0e 16 a8 be 25 07 0e 3c
       0.08345136 -0.6237165 -0.32829326 0.008668696
000080 f6 fc c8 3e 86 d8 48 bd d7 55 a0 bd 5c 84 01 3e
       0.39255494 -0.049034618 -0.07828873 0.12648147
000090 18 75 bc 3e dd 61 c8 3d ea 0d 7e 3e 30 c2 7a 3e
       0.36808085 0.09784291 0.24809995 0.24488139
0000a0 1d 34 13 3f 9f 06 46 be 0e e0 0b 3f 40 7c 6b 3e
       0.57501394 -0.19338463 0.54638755 0.22996616
0000b0 a3 39 9b bd cc ac 1e 3e 52 fc 40 bf e2 db 3e c0
       -0.07579353 0.15495604 -0.7538501 -2.9821706
0000c0 94 f5 d7 be 64 3e c5 bd 0d 18 4e 3f 67 85 c9 3f
       -0.4217955 -0.09631041 0.8050545 1.5743836
0000d0 43 75 1a bf d4 bf 7c bd 71 6d 9b 3f 45 d7 6b 3f
       -0.6033518 -0.06170638 1.2142774 0.9212535
0000e0 29 a5 05 be 51 eb 4b 3e ea f7 16 3e e1 7c d8 be
       -0.13051285 0.19913985 0.14743009 -0.42282775
0000f0 30 19 61 3f 51 31 19 bf 89 45 42 bd 32 b7 47 3d
       0.8792906 -0.59840876 -0.047429595 0.048758693
000100 98 e3 5e 3f b9 61 10 40 74 78 56 3f 04 4a 0b 40
       0.8706603 2.2559645 0.83777547 2.1763926
000110 b2 45 48 3f 05 1e 9d 3f 8c e7 35 40 af e5 9d 3e
       0.78231347 1.2274786 2.8422575 0.30839297
000120 f3 0d ec 3f d2 0f 91 bf 7d 30 a7 be 55 d1 f7 3f
       1.8441757 -1.1332953 -0.3265418 1.9360758
000130 24 c3 7f be 5a 20 8a be ab 98 d3 3f f8 f8 ed bf
       -0.24976784 -0.26977807 1.6530966 -1.8591604
000140 3b 15 56 3f 8c 2e f4 bf 7f 53 b1 bd c5 ee e8 be
       0.83626145 -1.9076705 -0.08658504 -0.45494667
000150 57 48 c7 bf 05 66 66 3d 03 b7 53 bf ce 14 06 3f
       -1.5568951 0.056249637 -0.8270113 0.52375495
000160 10 95 8b bd f2 26 ad be 1e 36 a2 3c bc d9 37 3f
       -0.06815541 -0.33818775 0.019801196 0.7181661
000170 42 84 c6 bf 54 8a 49 3f 05 06 83 3f 03 d6 19 3f
       -1.5509112 0.78726697 1.0236212 0.6009218
000180 d8 c0 35 bf df 88 b2 3f f9 65 f8 bf a2 9e dc bf
       -0.7099738 1.394802 -1.940612 -1.7235911
000190 c9 c2 d9 3e 67 90 e8 3c 99 2e ab 3e 9e ee 05 bf
       0.42531422 0.028389169 0.3343399 -0.52317226
0001a0 2c 66 90 bf 55 6c 5f 3f 8a 0f a4 bf e3 9b 9f bf
       -1.128118 0.87274677 -1.2817242 -1.2469448
0001b0 2f 0c 01 c0 97 fe 8e 3e 3c 62 1b 3f 07 9a 0a 40
       -2.0163686 0.27928612 0.6069677 2.165651
0001c0 e0 34 97 3d 94 a5 5c be ac 20 fa bf e1 27 9b 3f
       0.07383132 -0.21547538 -1.9541221 1.2121545
0001d0 74 a1 81 3f c1 52 ba 3f 0d d3 13 c0 4c 8e 00 bf
       1.0127397 1.4556504 -2.3097565 -0.5021713
0001e0 62 b0 36 40 b3 ba 3e bf ca f2 8d bf 07 47 bd be
       2.8545156 -0.7450363 -1.1089718 -0.36968252
0001f0 24 9b fb be aa 5b ca 3f 9e 09 6e 3e 7a 66 af bf
       -0.491418 1.5809224 0.23245856 -1.3703148
000200 1c c4 43 3f 51 62 e2 bd c9 e2 c3 be 62 fa 2c 3e
       0.76471114 -0.110539086 -0.3825896 0.16892388
000210 6e f7 43 3f 33 94 1b be 41 32 59 bf f5 24 26 be
       0.7654942 -0.15193252 -0.84842306 -0.16225035
000220 85 68 5b bd e7 2c 8c 3d 25 07 95 bf d1 6c d6 be
       -0.053566474 0.06844502 -1.1642805 -0.41879895
000230 88 e5 1e c0 26 87 bc 3f 35 0f cf bd 8d 7e 94 be
       -2.4827595 1.4728744 -0.101103224 -0.290028
000240 d9 32 1d be 07 2c 8b 3d e1 8f c6 be c8 3b a9 bf
       -0.15351428 0.06795507 -0.38781646 -1.3221369
000250 22 a3 09 40 be 2d a2 bf 5f 45 fa 3e e0 58 38 bf
       2.1505818 -1.267021 0.4888105 -0.7201061
000260 f6 db 6f 3f b7 36 3e 3b 70 3c 77 bc ab ed a4 bd
       0.9369501 0.0029024312 -0.015090093 -0.08053144
000270 38 6f 28 bd ee 71 20 bf 41 c2 9b bd 4d b8 fb be
       -0.04112169 -0.6267384 -0.0760541 -0.49164048
000280 85 48 a3 3f 1e 93 5a 3f 37 b9 09 bf 9d 4c 40 3f
       1.2756506 0.85380733 -0.5379824 0.751169
000290 b0 b4 2f bf 8b e1 2c bf fb 28 a0 3f 63 a7 b1 3f
       -0.6863508 -0.6753165 1.2512506 1.3879207
0002a0 d1 f2 ad be 2f 0c 88 3f 90 0d be bf e0 95 78 3f
       -0.33974317 1.0628718 -1.4847889 0.9710369
0002b0 41 74 e9 3f 09 07 70 3d 98 c8 c5 3d 03 f7 75 c0
       1.8238603 0.05860046 0.09657401 -3.8432014
0002c0 4c 3e 23 bf 33 7b cd be 28 e6 89 bf 8a c6 ea 3e
       -0.6376693 -0.40133056 -1.0773363 0.45854598
0002d0 9e 53 8a bf 8b 82 08 bf 42 39 68 40 c8 57 82 c0
       -1.0806768 -0.5332419 3.6284947 -4.0732155
0002e0 03 11 5f 40 18 ec 28 3f eb 17 ec 3d fc 95 02 bf
       3.4854133 0.6598525 0.115279995 -0.5101011
0002f0 94 8c 91 bf 89 70 3c be 25 6b d9 3e a5 ea 14 bf
       -1.1371026 -0.18402304 0.42464557 -0.5817054
000300 a4 3c 3f 3f ab 9e 8f 3e e3 c1 50 bf 8d af 73 bd
       0.74701905 0.28050742 -0.8154585 -0.05949359
000310 1e 24 04 3f f5 7d 10 bf 2b f2 3e bf 5a 0a 75 be
       0.5161761 -0.56442195 -0.7458827 -0.2392973
000320 e0 56 d8 be fa af 58 3c ae dc 6c bf 5e ef 34 bf
       -0.4225378 0.01322555 -0.9252423 -0.70677745
000330 a4 13 ce bf ae 96 a0 bd 8e a0 fb 3e d5 ae 1a c0
       -1.6099744 -0.0784124 0.4914593 -2.416921
000340 0d d5 0f bf c5 2e 81 bd 44 30 04 3f 6d b7 cf 3c
       -0.56184465 -0.06307749 0.5163615 0.025356019
000350 45 63 b5 3e 92 77 87 3e 6d 06 28 3f a2 c3 b0 3f
       0.354273 0.26458412 0.65634805 1.3809702
000360 1e f0 1e bf f5 af a2 3f 07 92 4c bd 9d aa af 3e
       -0.6208514 1.2709948 -0.04994395 0.34309855
000370 e9 d7 b1 bf 4c 95 af 3e 30 6f f2 bc c4 07 2c bf
       -1.3894016 0.34293592 -0.029594034 -0.6719935
000380 a2 26 d6 3f 0b ce f9 bd 85 81 d4 3e 25 81 61 3e
       1.673054 -0.12197503 0.41505066 0.22021921
000390 a3 de 55 bd 67 1f 09 c0 d8 75 d4 3f 7d e7 01 40
       -0.052214276 -2.1425416 1.6598463 2.029754
0003a0 c1 98 35 bc ef 88 10 bd 91 e9 97 bf ed 55 09 c0
       -0.011083783 -0.03528684 -1.1868154 -2.1458695
0003b0 0a 98 4c 3f a4 bc ff 3e 65 51 63 bf 26 c8 12 40
       0.79919493 0.4994861 -0.88796073 2.293466
0003c0 7a 8e 0f 3e 6f bb 8a 3f 91 0a 8f be ea a4 d0 bc
       0.14019194 1.083845 -0.2793775 -0.025469262
0003d0 e0 c6 b5 3f 78 d0 04 3f 58 f6 68 3f ec ed 81 bf
       1.4201317 0.518806 0.9100089 -1.0150733
0003e0 16 d8 20 bf 27 db d6 3d d5 3e 37 c0 f8 6e 90 3f
       -0.6282972 0.10491019 -2.86321 1.1283865
0003f0 c7 72 ac 3f 94 02 db be da 35 ae 3e 8a 4a f2 bd
       1.3472527 -0.42775404 0.3402546 -0.118306234

encoder.lstm.bias_ih_l0 f4 [128]
000000 bc 24 4c 3e 66 10 b2 3c 61 65 d0 bf 3e 40 22 bf
       0.19935888 0.021736335 -1.6280938 -0.63379276
000010 48 b7 da bf 62 5e 06 bf 1a 83 32 bf 4b cb 39 be
       -1.7087183 -0.52487767 -0.69731295 -0.18143956
000020 42 8b 79 bf b1 8d 47 be fb 6e 97 3b 81 e1 60 3c
       -0.97478116 -0.19487645 0.004621384 0.013725639
000030 4c 9f 9d 3f 1e 2d 18 be b0 24 28 bf 8f c2 40 bf
       1.2314239 -0.14860961 -0.6568098 -0.7529687
000040 13 99 7b bf cd d9 0f 3e 78 e6 8e bf e1 8e 30 3e
       -0.9828045 0.14047928 -1.1164083 0.17242004
000050 6b 8f 71 3f a0 48 89 bf c7 80 26 bf cd 64 80 be
       0.94359463 -1.0725288 -0.6504025 -0.25076905
000060 07 fb 2d be 7c 3d 69 bf 48 c5 99 3f 1e ae 5a bf
       -0.1699029 -0.9110944 1.201333 -0.8542193
000070 0f 6c 6e bf 7a 4e c0 bf 30 4f 36 be 3e 14 25 bf
       -0.93133634 -1.5023949 -0.17803645 -0.6448401
000080 e1 90 a5 be 3c 47 f7 bf b7 6f 1f 3f 39 1f 19 bf
       -0.32337096 -1.9318614 0.6227984 -0.59813267
000090 14 71 95 3f a2 13 2d bf 2e 7f ba 3b c7 0c 12 bf
       1.1675134 -0.6760808 0.0056914305 -0.57050747
0000a0 e0 36 04 bf 96 1e 88 bf 6a 80 e5 be 5b e7 90 bf
       -0.5164623 -1.0634334 -0.44824535 -1.1320604
0000b0 65 fa 57 3e d8 cb 3e bf 0c 13 91 bf df 12 99 3e
       0.21091612 -0.7452979 -1.1333938 0.2989721
0000c0 f2 2e 28 be 6b 22 fa bf 1b 83 0b 3f 96 a6 1a 3f
       -0.16424158 -1.9541754 0.54496926 0.6041044
0000d0 ef ba e4 bf 3c f2 c1 3e fa f8 92 bf d6 9d 80 3f
       -1.7869548 0.37880123 -1.1482232 1.0048168
0000e0 7f 61 c6 3f 9c 83 0d be 32 35 0e c0 7c 29 62 bf
       1.5498503 -0.13819736 -2.2219968 -0.8834455
0000f0 8f 14 86 3f 11 0d 76 3e 61 b7 b3 bf 1e 77 3a bf
       1.0475024 0.24028422 -1.4040338 -0.7283801
000100 23 e3 04 3f ce df c1 bc 26 9c c6 3d 4b e1 79 3e
       0.51909083 -0.023666289 0.09697752 0.24402349
000110 30 68 f7 3e 8b f7 e9 be 6f 79 c7 3e 32 9b b0 3e
       0.48321676 -0.45696673 0.38959834 0.34493405
000120 7d bb 1a 3d b3 f9 ef bd 32 e3 1c bf 8c e8 ec be
       0.03777646 -0.11717548 -0.6128417 -0.4627117
000130 19 78 59 bf 91 89 b0 3e 62 eb 4b bf 90 62 77 3d
       -0.8494888 0.34479955 -0.7965604 0.06039673
000140 31 d0 34 3d f8 df cc 3e cb 1a 09 bd e8 a3 02 3f
       0.04414386 0.40014625 -0.033472817 0.5103135
000150 a9 9b 5b 3f 55 e3 66 3e 1b 43 1c 3e 5b 46 a8 be
       0.85784394 0.22547658 0.15259974 -0.32866177
000160 ca 1a e0 bc 3e ff 80 3e 8d 16 7d bf 75 10 0b 3e
       -0.027356524 0.25194734 -0.98862535 0.13580497
000170 5e b8 dc bd 9e f9 c4 be ff 12 9c be 58 f3 b2 bc
       -0.10777353 -0.38471693 -0.30483243 -0.021844551
000180 3f 59 0d bf 54 ab 26 3e 6f d4 60 bf 1d cc 6b bf
       -0.55214304 0.16276294 -0.8782415 -0.9210833
000190 5d 49 bd 3e 82 d6 6e be f0 21 46 bf 8e 31 94 be
       0.36970034 -0.23324016 -0.77395535 -0.28944057
0001a0 a3 85 21 bf bd 8f 8d be c8 40 87 3d 66 16 2c bf
       -0.6309454 -0.27648726 0.06604153 -0.6722168
0001b0 e7 e0 02 3f 64 06 1a bf e9 55 04 bf 26 19 8d bd
       0.51124424 -0.60166 -0.5169359 -0.06889562
0001c0 69 a6 15 3e ff d4 d8 be 00 fd 00 bf b7 43 11 bf
       0.14614262 -0.42350003 -0.5038605 -0.5674395
0001d0 78 cd f2 3e 02 54 e7 be a1 12 55 bf 8d a6 10 bf
       0.47422385 -0.4518128 -0.8323155 -0.56504136
0001e0 ea d8 20 be fe 17 b2 bf f7 85 dc 3f 5a 6f 6b be
       -0.15707746 -1.3913572 1.7228383 -0.22991696
0001f0 c2 b4 8a be cd df 97 bf b1 8e 5f be 5e 4a fb be
       -0.27091032 -1.1865174 -0.21831776 -0.49080175

encoder.lstm.bias_hh_l0 f4 [128]
000000 c5 65 01 3e d9 c8 fe 3d 72 9c df bf 25 17 09 bf
       0.12636478 0.124406524 -1.7469618 -0.5355094
000010 fd 42 f1 bf 97 de 56 bf 63 bf 31 bf 04 02 84 bd
       -1.8848568 -0.83933395 -0.6943266 -0.06445697
000020 3f 4a 52 bf c1 d5 3b be e8 c7 14 be 67 3c 2b 3e
       -0.8214454 -0.1834326 -0.14529383 0.1672226
000030 19 a1 b0 3f 57 c9 38 be 48 06 0c bf a9 a3 4d bf
       1.3799163 -0.18045555 -0.54697084 -0.8032785
000040 b2 75 42 bf e6 41 af bd f8 39 93 bf 35 0d 3d 3e
       -0.7596084 -0.08557491 -1.1502066 0.1846207
000050 e7 fd 77 3f ba 1b 5b bf b5 51 1e bf 2b eb 0c bf
       0.968718 -0.8558918 -0.61843425 -0.5504634
000060 79 8d 52 be 90 ea 7c bf 0e a9 94 3f 8d fd 5b bf
       -0.2056178 -0.98795414 1.1614091 -0.8593376
000070 a7 a4 92 bf 08 0f d2 bf f5 55 46 be a0 39 5b bf
       -1.1456498 -1.6410837 -0.19368728 -0.85634804
000080 28 19 b9 be 7e 06 f9 bf 0f 79 2b 3f 0c 1e 0f bf
       -0.36152005 -1.9455106 0.66981596 -0.5590522
000090 67 1c 87 3f a9 fb 56 bf 79 f1 83 be 30 c5 c1 be
       1.0555543 -0.8397775 -0.25770167 -0.37845755
0000a0 61 ee e7 be 46 e6 7f bf c1 ca 22 bf 2f 76 6e bf
       -0.45299056 -0.99960744 -0.6359063 -0.93149084
0000b0 2d af 64 3d 36 be 34 bf 9e 3c 8d bf 5d 36 39 3e
       0.055831123 -0.7060274 -1.1034124 0.18087144
0000c0 f4 a9 16 3d ba b6 0b c0 f3 12 1d 3f ad 05 2c 3f
       0.036783174 -2.1830277 0.6135704 0.6719616
0000d0 3c a3 f2 bf 32 08 9e 3e c8 a8 8d bf dd b6 66 3f
       -1.8956065 0.30865628 -1.1067133 0.9012278
0000e0 02 53 c7 3f 67 77 9f be 72 45 12 c0 de 3e 84 bf
       1.5572207 -0.31145784 -2.2854886 -1.0331686
0000f0 d1 27 7c 3f 03 e3 62 3e 6a 5a b1 bf b1 e4 4a bf
       0.98498255 0.2215691 -1.3855717 -0.79255205
000100 be 96 00 3f 7b 71 16 bd c5 4e 07 bd 24 bb 85 3e
       0.50230014 -0.036729317 -0.033034105 0.2611934
000110 ca 46 82 3e d6 4d 42 be 2c 17 11 3f 50 42 b0 3e
       0.25444633 -0.18975005 0.5667598 0.34425592
000120 e2 4d 84 3e 4f 95 3e bd 3d 31 40 bf 79 85 f3 be
       0.2584067 -0.04652911 -0.7507513 -0.4756277
000130 77 c9 31 bf 33 24 b9 3e 29 21 92 bf 0d 41 98 3e
       -0.69448036 0.3616043 -1.141637 0.2973713
000140 b2 4b 7b 3b 5c df b5 3e 3b a2 73 3d 53 1b c6 3e
       0.0038344678 0.35521972 0.059480887 0.38692722
000150 4e 90 81 3f 4b 5d 38 3e cc 8f 1f 3e ce 73 14 be
       1.0122163 0.18004338 0.15582198 -0.14497301
000160 85 4a 5b be 4b ff 81 3e 2a b3 5a bf a1 fe 6f bd
       -0.21415146 0.25390086 -0.8542963 -0.058592442
000170 e1 80 80 be 20 ad 11 bf 89 4d 22 be 10 3a 47 be
       -0.25098327 -0.5690479 -0.1584989 -0.19455743
000180 aa d7 00 bf 20 b1 8b 3b d9 e2 2e bf 6f c1 5c bf
       -0.5032908 0.0042630583 -0.6831489 -0.86232656
000190 26 d7 ab 3e 26 0a ed bd ec 58 32 bf be c1 15 be
       0.33562583 -0.11574201 -0.69666934 -0.14624688
0001a0 90 7b 5b bf 9c 58 90 be df 44 80 bc 3c 17 77 bf
       -0.85735416 -0.28192604 -0.01565784 -0.9651983
0001b0 d7 9e c3 3e 55 70 26 bf ff 99 0b bf 7b 10 e0 bd
       0.38207123 -0.65015155 -0.54531854 -0.109406434
0001c0 e7 3f 8e 3d e9 77 96 be 35 ec 1c bf 26 eb c4 be
       0.06945782 -0.2938836 -0.61297923 -0.38460654
0001d0 1e 62 c2 3e 4a d5 8d be e3 50 7b bf 1d cf eb be
       0.37965482 -0.2770179 -0.981703 -0.46056452
0001e0 5a 52 42 be 7c cf bd bf a4 dc e6 3f d9 74 af be
       -0.18976727 -1.4828944 1.8036084 -0.34268835
0001f0 fc 19 08 be 83 de a5 bf da 4e 8a be d2 57 fb be
       -0.13291162 -1.295853 -0.27013284 -0.4909044

encoder.lstm.weight_ih_l0_reverse f4 [128, 8]
000000 87 62 c6 bd 01 99 7c bc b5 46 5d be f9 15 e7 3e
       -0.09686761 -0.015417338 -0.21609004 0.4513395
000010 d0 03 0e be ab c4 30 3f cf d4 c5 be 5b 13 89 3d
       -0.13868642 0.6905009 -0.38638923 0.06693145
000020 46 6e 72 3f c7 cd 04 3f 3e cc ad 3e 3e 42 d7 3d
       0.94699514 0.5187649 0.33944887 0.105106816
000030 26 5b 52 3f 0f 6d c1 3d af f4 d6 3d 11 f2 57 bf
       0.8217033 0.094446294 0.104958884 -0.8435374
000040 2b 1e cb 3d 16 31 cb 3e b0 02 47 3e 2f d2 ee 3e
       0.099178635 0.39685887 0.19434619 0.46644732
000050 ec d1 4e 3f 7f 44 4f 3e fa 1d 8b 3e e1 99 30 3f
       0.80789065 0.20240973 0.27171308 0.689848
000060 7a b6 f9 3d 96 59 5e bf d7 85 de 3e 54 11 e1 3d
       0.12193008 -0.8685545 0.43461487 0.10989633
000070 4c b3 8b bd 3b 6d 8b 3e 9a 39 38 3e 3e 87 81 3f
       -0.068213075 0.27231774 0.17990723 1.0119398
000080 35 02 13 bf 0b 34 7a 3e c4 ba 8f bf 6c 03 6e 3f
       -0.5742524 0.24433915 -1.1228871 0.9297397
000090 c5 d4 47 bf bb eb 83 3f 63 a1 18 bf db c5 16 3e
       -0.78059036 1.0306314 -0.59621257 0.14723913
0000a0 35 b1 9b 3c 9e 43 8f 3e 54 ad 97 be dd ef 77 3e
       0.019005397 0.27981275 -0.29624426 0.24212594
0000b0 d7 f6 1b 3e 0d da 96 3e cf 3b 1d bd b5 3d 0d 3e
       0.1523088 0.29463235 -0.038387116 0.1379307
0000c0 0f 59 8d 3e 0e 92 68 3e 3e 0f 40 3f b7 f0 88 bd
       0.2760701 0.22711965 0.7502326 -0.06686538
0000d0 90 ee b4 bd a8 ad 34 bf f4 b5 81 be cb 8f b6 be
       -0.08834565 -0.7057748 -0.25334132 -0.3565658
0000e0 58 cc 36 be 88 f1 96 3e 1c 02 1d bf 9a 0d b7 bd
       -0.17851388 0.2948115 -0.61331344 -0.08938141
0000f0 51 55 a6 be 10 50 86 3f 2f d4 d5 be 44 b0 84 bf
       -0.32486966 1.0493183 -0.41763446 -1.0366292
000100 90 be f3 be 59 1f 84 be 62 aa 84 be 0f 30 04 3f
       -0.47606325 -0.25805166 -0.25911242 0.5163583
000110 40 fb a9 be d2 b7 3c 3f 6d da 73 be b8 a2 ee 3d
       -0.331995 0.7371799 -0.23813792 0.1165213
000120 d5 3c 76 3f a8 cd 4d 3d 7a fd 1c 3f 9d 94 a1 3f
       0.9618657 0.050244957 0.61324275 1.2623478
000130 a8 60 0b 3f dc 61 85 3e 6a 7b 38 be 74 10 c5 bd
       0.5444436 0.26051223 -0.18015829 -0.09622279
000140 d4 64 1f 3f d0 50 81 3c 9e 65 55 3f e8 2e 24 bf
       0.62263227 0.015785605 0.8335818 -0.64134073
000150 71 b8 be 3e 26 c7 89 bf 7d 76 f5 3e 7d 4e 33 3c
       0.37250093 -1.07639 0.47941962 0.010944006
000160 9b d6 12 3e c0 b9 17 be 35 45 2f 3e 2b 11 16 bd
       0.14339678 -0.14816952 0.17116244 -0.036637466
000170 26 fd 43 3c 7b 44 30 bd 11 8d 39 be b9 95 fe 3d
       0.011962211 -0.043034058 -0.18120219 0.12430901
000180 a7 1f 7f 3f 10 64 02 bf 69 a6 0c be f5 45 90 3d
       0.9965767 -0.50933933 -0.13735355 0.07044593
000190 19 7f 99 3e 3d 7f d6 3f 30 c7 17 3f fe f6 18 bf
       0.2997978 1.675758 0.5928831 -0.5975188
0001a0 ba 4d 13 3f bc a6 9d 3c 79 b1 29 3f 2a 01 2a bf
       0.57540476 0.019244544 0.66286427 -0.66408026
0001b0 42 85 5c 3e 26 c6 5f bf 04 bd 71 3e d2 1d 1f be
       0.21535209 -0.87411726 0.2360726 -0.1553872
0001c0 f7 1e 8a 3f 47 ef 7b bf a1 92 05 bf b7 46 08 bf
       1.07907 -0.98411983 -0.5217686 -0.532329
0001d0 d2 9f 86 3f 89 b8 39 bf 5c 2c 00 40 d9 99 ff 3d
       1.0517523 -0.72547203 2.0027075 0.12480516
0001e0 06 54 26 3f 7f ba 89 bf 4f 9d de 3e 83 93 1a 3f
       0.6497196 -1.0760039 0.43479392 0.60381335
0001f0 a8 15 0c be 87 20 68 bf 3b 36 d7 3f 7d 74 8d bf
       -0.13680136 -0.9067463 1.6813425 -1.1051174
000200 93 ef 8a 3e 7c 26 27 3f 4b 84 28 3e e2 05 3d bf
       0.27135906 0.652931 0.16456716 -0.738371
000210 6f bf c1 bd 9b 22 9d be e6 c8 2a be 19 c0 3d bf
       -0.09460341 -0.30690464 -0.16678199 -0.7412124
000220 39 0d 3e bf 8f d4 2a 3f a6 12 1b 40 ce 57 50 bf
       -0.74238926 0.6673059 2.4230132 -0.8138398
000230 9a e9 64 be 97 a4 92 be 62 f5 6d 3f 74 3a 92 bd
       -0.22354737 -0.28641197 0.9295255 -0.07140055
000240 31 4f 70 3e 07 58 84 be 18 a2 82 3f db f3 99 be
       0.23467709 -0.2584841 1.0205717 -0.3006886
000250 02 3b 01 3f d3 67 45 bf 25 24 bb 3d 73 c5 91 3e
       0.50480664 -0.7711155 0.091377534 0.28470954
000260 7a 52 0f 3f c6 11 ff 3d 0b 59 a7 3f 75 33 dd be
       0.55985224 0.12454562 1.3074049 -0.4320332
000270 1b df 22 3f cd fb 49 bf 55 2c 60 bf 04 a5 56 3e
       0.6362168 -0.7889984 -0.87567645 0.20961386
000280 0c a3 72 3f d7 45 9d 3c 82 b4 15 3f 7e 7b 8c be
       0.9478004 0.019198341 0.5847856 -0.27437967
000290 bb 29 18 3d b7 85 65 bf d1 c2 14 3e ed 19 02 be
       0.037149172 -0.8965716 0.14527442 -0.12705202
0002a0 5b 50 20 3f 15 11 c9 bd 08 a8 21 3f b9 bd 38 bf
       0.6262261 -0.09817711 0.6314702 -0.72164494
0002b0 c4 da 99 3e a1 6b 46 bf 8e 8c fa 3e 44 d2 d8 3e
       0.30049717 -0.7750798 0.4893536 0.4234792
0002c0 6f 4f 9d 3f 66 03 2e bf 79 2b fe 3e 14 2d b4 be
       1.2289866 -0.67973936 0.49642542 -0.35190642
0002d0 26 4f 36 bf c7 95 23 3f b8 5b d6 be eb 68 39 3f
       -0.7121452 0.6390042 -0.4186685 0.7242572
0002e0 a9 e6 9e 3e 56 33 9c 3e 76 c1 06 3e 09 e2 a7 bf
       0.31035355 0.30507916 0.13159737 -1.3115855
0002f0 75 a3 96 3e 82 c8 36 3f a6 9d 48 3f bb 83 86 bf
       0.29421583 0.713997 0.7836555 -1.0508951
000300 ed 43 12 3f 80 ed 49 be 25 7b 14 3f 50 f0 9a be
       0.57134897 -0.19719505 0.58000404 -0.3026147
000310 f2 ed 4b 3d a8 ab fa bd 9a c3 c3 3d 8d f3 a9 3f
       0.04978747 -0.12239772 0.095587924 1.3277451
000320 8b b8 43 3f fa 9b 76 3e d6 87 90 3f 3a ac 12 bf
       0.76453465 0.24082938 1.1291454 -0.57294047
000330 7a 93 a7 3f 31 9c 95 bf 39 9e ed 3e ff 52 13 3f
       1.3091881 -1.1688291 0.46409777 0.57548517
000340 15 76 49 3f d0 13 94 bf cb b6 b6 be 25 cb 46 bf
       0.78695804 -1.1568546 -0.35686335 -0.77653724
000350 4a 80 dc bd e3 fd 96 bf 46 03 6b 3f dd 01 35 be
       -0.10766657 -1.179623 0.9180187 -0.17676492
000360 22 87 23 be cb 59 d5 bd 10 ce 74 3e b1 e6 32 bf
       -0.15969518 -0.10417517 0.23906732 -0.6988326
000370 51 a1 a6 3e 07 25 62 3d e6 27 56 be f3 29 34 bc
       0.3254495 0.055211093 -0.20913658 -0.01099633
000380 fb 2c 08 3f 4f 9e 5a be 06 d2 dd 3e 7f 99 bd be
       0.53193635 -0.21349452 0.43324298 -0.3703117
000390 2e 50 2d 3e 5d 0e aa be 6e 11 4e 3e 01 a2 64 3c
       0.16925117 -0.33214083 0.20123836 0.01395464
0003a0 fc fd 0d bf 2a 30 0e be 39 14 c9 be bc f8 09 3e
       -0.55465674 -0.1388556 -0.3927324 0.13473791
0003b0 84 53 88 be 97 44 c5 3e a4 d5 20 3e 6b a0 96 be
       -0.26626217 0.38528892 0.15706497 -0.29419264
0003c0 79 75 92 3e 8e 1a 15 3e 6e 27 87 bd c5 7e b4 3e
       0.2860525 0.14560911 -0.065993175 0.35252967
0003d0 4e 22 78 be 80 6b 48 3f 9c c5 96 3e 6d e7 68 be
       -0.24231836 0.7828903 0.2944764 -0.22744532
0003e0 82 52 eb 3e 3c 85 9f bd 84 b3 2c 3f ea 4d 36 bf
       0.45961386 -0.07789084 0.6746142 -0.7121264
0003f0 9a 08 9e 3e 41 12 44 bf 9a ba f9 3d d2 16 0a 3e
       0.30865937 -0.76590353 0.121937945 0.13485268

encoder.lstm.weight_hh_l0_reverse f4 [128, 32]
000000 ac ed 72 bd b4 89 9c 3f fa fb a7 3f 3c 6c 36 3e
       -0.059308693 1.2229524 1.3123772 0.17814726
000010 60 9b 50 3f c2 38 12 3c d0 b8 b2 3f d3 ad 35 3f
       0.81487083 0.008924665 1.396265 0.7096836
000020 48 5f 32 bd de 82 56 bf 54 3b 00 bf 19 0e 13 3f
       -0.0435479 -0.8379344 -0.5009053 0.57443386
000030 7c 52 76 3d 1c f9 17 3f e0 5f 86 3f da 5f 18 3f
       0.060137257 0.59364486 1.0498009 0.5952126
000040 4a 5f 3f bf 4c 9b 23 c0 99 41 3f 3f 4a 15 25 3f
       -0.74754775 -2.5563536 0.7470947 0.6448561
000050 8c 56 bc be cd 9b 06 c0 fa 70 7c 3f 82 97 1f be
       -0.3678478 -2.1032593 0.9860989 -0.1558514
000060 79 43 b8 bc f1 5f dd be f7 8a f0 3f 2d 43 32 3f
       -0.022493111 -0.4323726 1.8792409 0.6963375
000070 dc 46 02 3f f1 a8 36 bf 3f ed 08 3f 32 13 1b 3f
       0.5088937 -0.71351534 0.5348701 0.60576165
000080 7c cc 82 bf 67 ce 08 40 b6 19 73 bf 67 e2 4d 3f
       -1.0218654 2.1375978 -0.94961107 0.8042359
000090 86 f9 f9 be 91 aa 0d 3f af f9 78 3f 9f ce a8 3f
       -0.48823184 0.5533839 0.97255987 1.3188056
0000a0 2a 8d a6 be b0 b9 32 3f d9 b2 51 bf a9 87 0d 3f
       -0.32529575 0.69814587 -0.81913525 0.55285126
0000b0 7a dd 08 3f 13 2a 4f 40 7f 85 a8 bf 78 1c 27 3d
       0.53462946 3.236943 -1.316574 0.040798634
0000c0 94 ce f0 3e 65 f2 d7 3e 3f 80 8b 3e 73 ef d9 3e
       0.47032607 0.4217712 0.27246282 0.42565498
0000d0 c6 e3 ab be b7 f5 39 be ff ad 20 bd de 91 a1 3e
       -0.33572215 -0.18160139 -0.039228436 0.315566
0000e0 a4 8d 86 3e 56 09 1f bf 5a a2 23 bc b3 13 90 3f
       0.26279938 -0.6212362 -0.009987438 1.1256012
0000f0 b0 fa 33 bf 7a bd 8c 3f 02 2f 4a 3f c8 f8 c4 be
       -0.70304394 1.0995324 0.7897798 -0.38471055
000100 ea 42 ea 3d 05 d9 a8 3e 9b 5b a5 3f e3 b3 99 be
       0.11438544 0.32978073 1.2918581 -0.30020055
000110 ee fa 24 3f a6 ca f9 3d f7 26 64 3f 56 55 2c bf
       0.6444539 0.12196855 0.89121956 -0.6731771
000120 bb 9d 09 3f 6b 47 62 bf 46 d1 e4 bf 72 c9 b5 bd
       0.537563 -0.88390225 -1.7876365 -0.08876313
000130 73 e8 b7 3e 09 61 a2 3f f5 dc 87 bf 63 3c e2 be
       0.35919532 1.2685863 -1.0614306 -0.44186696
000140 84 c2 8f 3c be 81 5f bf f9 33 ca 3f bf 51 a4 3e
       0.017548807 -0.87307346 1.5797111 0.32093617
000150 ed 1f e3 bf 27 9a da 3e 6c 3f b4 be 35 d7 35 bf
       -1.7744118 0.42695734 -0.35204637 -0.71031505
000160 65 f5 df bf de e1 e5 bd 03 79 2b 3e 23 70 a4 be
       -1.7496763 -0.11224721 0.16745381 -0.32116804
000170 78 12 a8 bf 25 75 80 3e ab eb 14 3f 3e e7 0b 3f
       -1.3130636 0.25089374 0.581721 0.5464972
000180 d5 93 1a 3f ac 8a 19 3f 6d b0 0b 3e b7 e5 1b be
       0.60381824 0.5997722 0.1364152 -0.15224348
000190 e8 37 a9 be d0 ab 16 3f 1e 30 41 bf b5 89 92 3f
       -0.33050466 0.58855915 -0.75464046 1.1448275
0001a0 aa d4 21 3e dd 36 cf 3e 03 65 4b be fa 6e 85 bf
       0.15803781 0.40471545 -0.19862752 -1.0424492
0001b0 74 e1 c7 3f f5 36 44 be 57 d1 3d 3f 00 d0 f7 bd
       1.5615678 -0.1916159 0.7414755 -0.1210022
0001c0 a3 79 3a bf 2d c4 54 3f f2 56 9f bf 02 6d 23 3f
       -0.7284185 0.8311184 -1.2448409 0.6383821
0001d0 b5 6c 05 3f 64 2a cb be 04 56 96 3e 14 e6 b6 3e
       0.52119 -0.3968078 0.293625 0.3572241
0001e0 86 e6 90 3f 19 eb f7 be e1 25 29 bf a6 12 1e 3f
       1.132035 -0.48421553 -0.66073424 0.61747205
0001f0 31 29 8d bf dd 4b a8 be 73 aa fe be 65 55 a4 bf
       -1.1028196 -0.3287038 -0.49739417 -1.283856
000200 e1 3c c1 be a4 8c 9a 3e ab 60 b8 3e ee b5 68 3f
       -0.3774176 0.30185425 0.36011252 0.909026
000210 cc 0b a7 3f 35 cf 7b 3f 4e b2 38 bd c8 0b 34 3f
       1.3050475 0.9836305 -0.04509192 0.70330477
000220 52 7a 96 3f 29 46 b2 bf a0 33 f5 be c1 88 99 be
       1.1756079 -1.3927661 -0.4789095 -0.29987147
000230 b0 79 c8 3f 95 39 81 3f ac 4e 7f bf 37 1a c6 3f
       1.5662136 1.0095698 -0.9972942 1.547675
000240 55 2c e6 bc 16 78 d0 3e 2e df f2 bf f2 70 73 3e
       -0.028097311 0.40716618 -1.8974359 0.23773554
000250 5a cf 63 bf f5 27 92 bf 28 2d 7b 3f d6 34 61 3d
       -0.8898827 -1.1418444 0.9811578 0.05498203
000260 97 f2 cc 3d 90 14 28 3f 3a fa 0c bf 1f 7a 38 bf
       0.10007208 0.65656376 -0.55069315 -0.7206134
000270 17 9d 65 be f0 95 e2 be 7f 7d f9 be c6 09 d3 bf
       -0.22423206 -0.44255018 -0.48728558 -1.6487358
000280 7b 48 69 3f 7a ff e6 bd 44 f0 b0 3e 5f 96 3b bf
       0.9112622 -0.11279197 0.34558308 -0.73276323
000290 1b c8 91 3f 7d 3d 84 bf 78 3b 10 3f bb e3 00 3e
       1.1389192 -1.0331265 0.5634074 0.12586872
0002a0 3d fc 75 3f 0f 18 96 be 60 95 45 3f 07 1d 30 3f
       0.9608801 -0.2931523 0.77181053 0.6879429
0002b0 c5 a7 4a 3c a6 bf 9d bf 54 6f a7 3f 33 fd c8 bf
       0.012369101 -1.2324111 1.308085 -1.570227
0002c0 50 0b ab be 4c ef e3 be b1 c9 06 be b8 42 0b 3f
       -0.33407068 -0.44518507 -0.13162877 0.5439868
0002d0 63 86 9a bf 87 ff c2 bf ec 33 f5 be b9 20 78 3d
       -1.2072262 -1.5234231 -0.47891176 0.06057808
0002e0 99 9c 00 bf 6d 64 8b bf e0 47 20 b8 10 f2 4d 3f
       -0.5023895 -1.0890023 -3.821391e-05 0.80447483
0002f0 b9 2c 82 be 1e a6 14 3c d0 d5 d3 bf f4 34 9c be
       -0.25424746 0.009072809 -1.6549625 -0.3050915
000300 e9 7b 9f 3e 4d 70 d3 bf ab d0 81 3f c4 89 48 3f
       0.31149223 -1.6518646 1.0141805 0.78335214
000310 f3 87 54 3f 9b 4b 25 3f 39 03 d8 3f 4c d3 1f bf
       0.8301994 0.6456849 1.6875983 -0.6243179
000320 0b fc 8e be 89 63 ee be d8 40 b8 bf 36 71 33 3f
       -0.2792667 -0.46560314 -1.4394789 0.7009462
000330 6a 8a 1a 3f 50 e4 41 c0 7f 03 b6 be 86 30 31 bf
       0.60367453 -3.02956 -0.35549542 -0.69214666
000340 f2 fe 34 bf ce d3 c8 bc 4b bd b0 3f 74 a5 08 be
       -0.70701516 -0.024515059 1.3807768 -0.13344365
000350 99 44 06 bf c1 e2 64 bd 98 42 9f bf b5 1e bd 3f
       -0.5244842 -0.055880312 -1.2442198 1.4774996
000360 05 a5 09 be ad a1 e0 3e 05 06 f2 3e fe 5a 13 be
       -0.13441856 0.4387335 0.47270218 -0.1439018
000370 e6 dc e6 3f c6 e5 83 bf 6d 4f d3 3e a0 f1 a0 3f
       1.8036163 -1.0304496 0.41271535 1.2573738
000380 73 d1 1d bd 08 f0 aa bf 37 da a1 bf e4 44 66 3d
       -0.038529824 -1.3354502 -1.2644719 0.056218043
000390 77 2f 0d 3e 41 dc aa 3f 5e a4 e9 3d 4e ea 5e 3f
       0.13787638 1.3348466 0.11408304 0.8707627
0003a0 e7 3a 9f 3f c7 4f 25 3f b8 27 12 40 f7 02 53 bf
       1.243985 0.64574856 2.2836742 -0.824264
0003b0 6f 1d 18 3f 19 a0 41 c0 93 34 f1 be 4a e2 91 be
       0.5941991 -3.0253966 -0.47110423 -0.28492957
0003c0 dc 09 db 3e e0 78 a2 3e 5e 7e 1a c0 1d 12 68 3e
       0.4278096 0.31732845 -2.4139628 0.2266316
0003d0 d3 39 25 c0 b2 1c 86 bf a2 49 77 3f d8 e3 0b 40
       -2.5816543 -1.0477507 0.9659673 2.1857815
0003e0 5e 89 3e bf 7f e0 10 bf dc 31 51 3f 4d 3a c0 be
       -0.74428356 -0.56592554 0.81716704 -0.3754448
0003f0 b5 24 e1 3f ff 2f 32 3d cd 2d bc 3f ba a7 21 bf
       1.7589327 0.043502804 1.4701477 -0.63146555

encoder.lstm.bias_ih_l0_reverse f4 [128]
000000 e7 d2 9a bf 62 e5 81 bf 24 bd 88 bf 2e 35 59 bf
       -1.2095612 -1.0148127 -1.0682721 -0.8484677
000010 e9 f1 31 bf dc 38 98 bf 33 de 09 bf da 45 85 bf
       -0.6950975 -1.1892352 -0.53854674 -1.0411942
000020 1d 96 85 bf 2d 93 71 bf 83 ee db be fa b7 56 bf
       -1.0436436 -0.943652 -0.42955408 -0.83874476
000030 d9 a6 ad bf 2c 11 1e bd 33 d1 f1 be 88 f3 dd 3d
       -1.3566543 -0.038590595 -0.4722992 0.108374655
000040 71 c6 53 bf 62 bc bf be ab e6 15 be 72 e3 7b bd
       -0.8272467 -0.37448412 -0.14638774 -0.061496206
000050 e9 6e 01 bf ef 55 35 be 3d 5f 39 be eb e0 43 bf
       -0.5055986 -0.17708562 -0.18102737 -0.7651507
000060 66 01 bb bf 7e 6a 01 3f 86 b5 0e bf 0f c3 a2 bf
       -1.4609802 0.5055312 -0.5574573 -1.2715777
000070 ba 5f f0 be ef 4d 1d bf 20 87 6c bf da bb d6 be
       -0.46948034 -0.6144704 -0.92393684 -0.41940194
000080 d2 da d6 3f ec 83 2d 3f e4 9f 8c be a4 45 c0 3f
       1.6785529 0.6777942 -0.27465737 1.5021253
000090 55 aa 98 bd a3 20 d1 3f 8a 05 e2 3e 1c be bd bf
       -0.07454363 1.6338085 0.4414485 -1.4823642
0000a0 82 e6 a2 3f 12 3a e2 bf 4c 35 c4 bf 47 ec 44 3f
       1.2726595 -1.7673972 -1.5328765 0.7692303
0000b0 5d 6a 9e 3e 5d 0b b5 bf 54 c1 c1 bf 47 fa 02 c0
       0.30940524 -1.4144093 -1.5137124 -2.0465257
0000c0 05 4e 87 3f be 48 03 c0 8a ab ac bf f6 26 ee bf
       1.0570685 -2.0513148 -1.348985 -1.860564
0000d0 4d b1 9e bf b8 4d c4 bf a6 05 b3 bf 71 3c 9e bf
       -1.2397858 -1.5336218 -1.3986099 -1.2362195
0000e0 f4 42 e9 bd 50 b3 b7 bf 85 04 aa bf 98 ea 9a 3f
       -0.113897234 -1.4351597 -1.3282629 1.2102842
0000f0 30 11 9c 3d 2a a4 9c bf 99 bf 20 3e 79 ea d1 bf
       0.07620466 -1.2237599 0.15698089 -1.639968
000100 9c e8 80 be 0b 62 e8 be 51 c9 72 be 72 6b d0 3e
       -0.25177467 -0.453873 -0.23709609 0.40706974
000110 b6 89 6c 3e 97 2b 21 bf a4 30 1a bf 52 90 b0 3e
       0.23099408 -0.6295714 -0.6023047 0.34485108
000120 fd 91 6d bf 4f d5 02 3e 49 8b 56 3e d0 e4 c0 bd
       -0.92800885 0.12776683 0.2095157 -0.094186425
000130 b2 13 ab be ef 57 16 bf 93 3b b8 3d d9 35 f2 3d
       -0.33413464 -0.58727926 0.08995738 0.11826677
000140 3c 6e c9 bc 13 ca c8 3e 9b 10 b3 be 7d 52 7d 3e
       -0.024588697 0.3921667 -0.34973606 0.24738498
000150 5e 44 8a 3e 3c 66 28 3e fa 02 88 3d 17 ef 13 be
       0.27005285 0.1644525 0.06641193 -0.14446674
000160 e9 42 1e 3e df fb 22 3d d6 01 ff be 39 d0 b4 bd
       0.15455212 0.039790984 -0.49806088 -0.08828778
000170 c8 89 12 be 89 1a d9 bd ae 6b 87 3e 0f 6b ad bd
       -0.14310372 -0.10600764 0.2644934 -0.084676854
000180 80 02 c6 3d 1f 9a 5a bf 0a 4c 5d bf 64 49 d7 be
       0.096684456 -0.8539142 -0.8644415 -0.4204818
000190 15 c4 ff bd 68 98 04 3f fa 7b 6a be 76 1a 57 bf
       -0.124885716 0.51795053 -0.22898856 -0.8402475
0001a0 2e f1 9f be 06 43 75 bf 71 0b d2 bd 68 32 84 bd
       -0.31238693 -0.95805395 -0.102560885 -0.06454927
0001b0 ff 7d 9e bf c3 cf 80 bf 88 a8 55 bf cf 1c d4 3e
       -1.2382201 -1.0063404 -0.83460283 0.4142823
0001c0 b7 47 af bf 91 58 1f bf 51 2f 99 be bd 41 2f be
       -1.3693761 -0.62244517 -0.29918912 -0.17114921
0001d0 eb 09 91 be a5 21 64 bf aa 2e 6c bf c3 2f 81 bf
       -0.2832788 -0.8911384 -0.92258704 -1.0092701
0001e0 0f 8b 7d bf 51 57 5f 3e 08 95 d6 be 18 73 9a 3b
       -0.9904031 0.21810652 -0.41910577 0.0047134273
0001f0 e9 a0 f6 3d d6 25 64 bf e5 60 1b bf 0f 97 0a bd
       0.1204241 -0.89120233 -0.60694724 -0.033835467

encoder.lstm.bias_hh_l0_reverse f4 [128]
000000 93 97 a6 bf 06 c6 7b bf 16 01 84 bf bb f8 82 bf
       -1.3015007 -0.98349035 -1.0312831 -1.0232157
000010 27 02 69 bf 88 c4 88 bf 58 12 14 bf 0e 0d 58 bf
       -0.9101891 -1.0684977 -0.5784049 -0.8439492
000020 5d b8 a5 bf 95 27 3f bf c4 8b d8 be bc e8 78 bf
       -1.2946888 -0.7466977 -0.42294133 -0.97230124
000030 5f 92 9f bf 77 29 ef bc c1 1a 1a bf 25 bc 08 3e
       -1.2466544 -0.029194577 -0.60197073 0.13353021
000040 fb 9d 47 bf 92 7e 00 be d8 69 95 be 42 ce c1 bd
       -0.77975434 -0.12548283 -0.29182315 -0.09463169
000050 99 63 07 bf 8c 89 58 be 9b eb d3 bd b8 3a 79 bf
       -0.5288635 -0.2114622 -0.103476726 -0.9735522
000060 67 b7 b4 bf 22 b9 15 3f ac 27 14 bf 50 98 88 bf
       -1.411847 0.58485615 -0.57873034 -1.0671482
000070 e9 cb 05 bf 25 ba e2 be 8a 14 30 bf 91 c4 07 bf
       -0.5226427 -0.44282642 -0.6878134 -0.5303431
000080 01 24 f6 3f 0a ca 62 3f dd c2 03 be 57 7a 9f 3f
       1.9229738 0.8858954 -0.12867303 1.245921
000090 47 70 41 be 8d a2 e8 3f f4 93 b9 3e f0 4f 96 bf
       -0.18890487 1.8174607 0.36245692 -1.1743145
0000a0 d9 8d 94 3f 04 ac dd bf f8 71 a3 bf 0f 1a 6b 3f
       1.1605788 -1.731812 -1.2769156 0.9183664
0000b0 bd 67 ad 3e 56 34 99 bf 46 9a dd bf 00 15 f8 bf
       0.3386821 -1.1969097 -1.7312706 -1.9381409
0000c0 72 46 8a 3f 10 ac f3 bf f0 50 a3 bf 42 7b f9 bf
       1.0802748 -1.9036884 -1.2759075 -1.949074
0000d0 4d 84 af bf 3c 54 a8 bf 8b f3 a2 bf 27 c6 a2 bf
       -1.371225 -1.3150706 -1.2730573 -1.2716721
0000e0 9a ea ee be 5a 21 b9 bf 43 e9 a0 bf c3 1b 95 3f
       -0.46663362 -1.4463303 -1.2571186 1.1649097
0000f0 81 2d 15 bd d6 31 a5 bf 14 8e dc 3d fc 68 ac bf
       -0.03642035 -1.2905834 0.10769287 -1.3469539
000100 8e 6e 2e be af 97 15 bf f3 cc 5e 3d f2 f9 14 3f
       -0.17034361 -0.58434576 0.054394674 0.58193886
000110 ac 3c b5 3a bb e5 10 bf 7c ac 2a bf b9 1e 0e 3f
       0.0013827286 -0.5660054 -0.6666944 0.5551563
000120 90 ce 33 bf 2a be a1 3e b6 db c7 bc fd be 30 3d
       -0.70237064 0.31590396 -0.024396759 0.04315089
000130 f9 f5 83 be ed cd 0b bf 63 22 6e bd 24 12 31 3d
       -0.257736 -0.5461109 -0.058138262 0.04323019
000140 ea d1 c7 3d e6 5a 01 3e 15 ef 0d be b4 28 dc 3c
       0.09756835 0.12632331 -0.13860734 0.026874878
000150 ab 18 8a 3e e4 a1 31 3e 5a 43 95 3d 06 50 e5 bd
       0.26971945 0.17346913 0.07288237 -0.11196904
000160 64 62 0b bd 19 57 5d 3c 58 b5 c3 be 2d 02 8e 3d
       -0.03402938 0.013509535 -0.38224292 0.06934009
000170 8d 9d 39 3d fb 33 25 3d 8a 15 73 3e 40 9a 8f bd
       0.045316268 0.040332776 0.23738685 -0.07011843
000180 5d 54 2a 3d 42 bd 92 bf 0d 11 72 bf 01 09 05 bf
       0.04158436 -1.1464007 -0.9455727 -0.51966864
000190 af a2 ef bc dd 69 33 3f b5 5a 1a be 2f 8a 60 bf
       -0.029252378 0.7008341 -0.15073664 -0.8771085
0001a0 53 7c 53 be 32 c2 88 bf f6 a5 5c be 4c 08 94 bd
       -0.20652895 -1.0684264 -0.21547684 -0.07228145
0001b0 9f 6b 82 bf 19 29 62 bf 28 ad 35 bf 09 5f 28 3f
       -1.0189093 -0.8834396 -0.7096734 0.6577001
0001c0 1e d8 b4 bf 2b 6c 69 bf c4 c4 ee be c8 37 54 3c
       -1.4128454 -0.91180676 -0.46634495 0.012952752
0001d0 ab c7 49 be cf 49 50 bf 05 56 47 bf ad 7a 91 bf
       -0.19705074 -0.8136262 -0.7786563 -1.1365563
0001e0 5f 83 83 bf 3b e0 4a 3e 24 8c f6 be 29 22 49 be
       -1.0274466 0.198121 -0.48153794 -0.19641937
0001f0 0e f4 98 bc e1 c9 58 bf d1 6c 4a bf 1a 1b 3d 3d
       -0.018671062 -0.8468304 -0.7907229 0.046168424

decoder.embedding.weight f4 [14, 8]
000000 5c f0 e0 3f 05 bf 9a 3e d0 5d 88 be 52 61 96 3e
       1.7573352 0.3022386 -0.26634073 0.29371125
000010 82 33 5f 3f 5f 8a 1f 3f 01 05 6d 3f c1 72 80 bf
       0.8718797 0.6232051 0.9258576 -1.003502
000020 27 c5 cc 3e c8 a3 d9 3e 4e 50 64 3f 96 cc 53 be
       0.39994165 0.42507768 0.89185035 -0.20683512
000030 2a f4 8b bf cf 20 81 3f 8b 5a 3c bf 13 f7 c8 3d
       -1.0933888 1.0088137 -0.7357566 0.09812751
000040 e7 99 22 40 0b 52 43 3f ef d1 63 3e a5 07 23 c0
       2.5406435 0.7629706 0.22248052 -2.5473416
000050 22 6f 2e 40 80 3f ab bf f8 62 ad 3d 44 07 8f c0
       2.725533 -1.3378754 0.084661424 -4.469637
000060 d0 d7 67 bb c0 4b 32 bb 4a 88 bb 3c e9 46 8a 3b
       -0.0035376437 -0.0027205795 0.022892136 0.004219879
000070 6c 1c e0 3c 66 db 21 3d 06 c5 cc be ac 34 3c bb
       0.027357303 0.039515875 -0.39994067 -0.0028717918
000080 89 cd 35 3d a2 db e6 3c 65 0b 81 3e 88 7e 35 3f
       0.044385467 0.028180901 0.25204006 0.70896196
000090 5e 31 23 3f 61 6c 8f 3e 79 2d 9e be 8c f2 85 3f
       0.63747203 0.28012374 -0.30894068 1.0464644
0000a0 93 fb ac bf 97 9c 8a bf 7e 66 05 bf 9a 25 99 3f
       -1.3514274 -1.0829037 -0.52109516 1.19646
0000b0 b2 93 4b bf 68 b6 a6 bf 72 55 38 3f f6 3e c2 3c
       -0.7952224 -1.3024416 0.7200538 0.023711663
0000c0 62 8d 91 bf 00 68 e8 bf a4 8e 7c bf 6d 50 85 be
       -1.1371272 -1.8156738 -0.9865515 -0.26037923
0000d0 f6 f2 88 bf d8 cd 02 40 5e ef 60 40 39 b7 86 bf
       -1.0699146 2.0438137 3.5146098 -1.0524665
0000e0 70 14 02 c0 72 85 bf be f2 eb d9 bf d0 01 de 3e
       -2.0324974 -0.37406498 -1.702513 0.43360758
0000f0 fa 8b 26 bf d7 fe 2c 40 27 98 db 3f e9 a4 8d bf
       -0.6505734 2.7030542 1.7155808 -1.1065952
000100 0c fc c6 3e ed 0c eb bf e0 d7 29 c0 3f 77 03 be
       0.38864172 -1.836332 -2.653801 -0.12838458
000110 e7 1b 40 c0 d3 32 eb 3f f9 54 8a 40 99 58 14 c0
       -3.001703 1.8374885 4.3228726 -2.3179076
000120 77 af ab 3f 28 23 8e 3f ee 0a 48 c0 e3 70 e5 3f
       1.3412923 1.1104479 -3.125667 1.7925075
000130 c9 23 f8 bf 40 eb 87 3f ca 1a 90 3e ff 12 e7 3e
       -1.9385921 1.0618668 0.28145438 0.4513168
000140 64 c8 d3 be ec bd e9 bf dc e7 1c 3f 4f a4 ed 3f
       -0.41363823 -1.8261085 0.6129129 1.8565768
000150 50 29 3d 3f 6c b0 68 3f cd 81 a8 3e 20 8e a5 bf
       0.7389116 0.908942 0.3291153 -1.2933998
000160 03 58 2f bf 71 75 e4 bf cd ae 11 c0 aa 78 d6 bf
       -0.6849367 -1.784834 -2.276294 -1.6755574
000170 81 69 ee bf 74 a7 47 3f 38 a2 41 40 95 ba 3f 3f
       -1.8625947 0.7798989 3.025526 0.74894077
000180 4f f0 8b 3d 15 a8 9e bd 84 18 19 c0 2d 6c 08 bf
       0.068329446 -0.07746903 -2.3921213 -0.53290063
000190 a3 ab c1 bf 3a b3 9a 3f 10 5b 07 40 f9 71 73 3f
       -1.5130504 1.2085946 2.114933 0.95095783
0001a0 2a a3 5d 3f 76 1d db bf ca c1 01 c0 96 fe e0 3f
       0.86577094 -1.7118366 -2.027453 1.7577693
0001b0 1e 45 e3 bf 05 aa ad bf b3 1a b9 3f 87 ea 06 bc
       -1.7755468 -1.3567511 1.4461273 -0.008234627
