data/model/seq2seq.date.bs128.ed16.hs128.ep5.transformer.pth (torch, 125273 bytes, 68 tensors)

model.encoder.layers.0.self_attn.in_proj_weight f4 [48, 16]
0	0x3d9defbf	0.077117436
1	0xbec7898b	-0.38972124
2	0xbd298daf	-0.041394886
3	0x3ec5c02f	0.38623187
4	0xbe9fcc8b	-0.3121074
5	0xbd6a2a2c	-0.057169124
6	0xbe872d16	-0.26401585
7	0x3e01e374	0.12684423
8	0xbd7ea8d0	-0.06217271
9	0xbe13645e	-0.14393756
10	0x3e775dcb	0.24156873
11	0x3f095750	0.53648853
12	0x3de18bc8	0.11012989
13	0xbed275a5	-0.4110538
14	0x3d4a1ca7	0.04934373
15	0xbc67c77e	-0.014146684
16	0x3eb5bb58	0.35494494
17	0x3f1f5f7b	0.62255067
18	0x3eb30a50	0.34968805
19	0x3e8c853e	0.27445406
20	0xbcb7ccec	-0.022436582
21	0x3ebe6b28	0.3719113
22	0x3ebdb211	0.37049916
23	0x3be65104	0.007028701
24	0x3ed5c8c6	0.4175474
25	0x3cc929be	0.024556037
26	0xbdaaafae	-0.083342895
27	0xbf0ebbda	-0.5575539
28	0xbf7e62a9	-0.99369293
29	0xbd102804	-0.035194412
30	0x3eace541	0.33768657
31	0xbe7d964c	-0.24764365
32	0x3e566355	0.2093633
33	0xbedb3e64	-0.42821038
34	0xbe0b3beb	-0.13597076
35	0xbdaded23	-0.08492496
36	0xbf0631e4	-0.5241988
37	0x3f09b13d	0.5378607
38	0x3e4d4aa2	0.20048001
39	0xbd011454	-0.031513527
40	0x3e9ed0e5	0.3101875
41	0x3d94677d	0.07246301
42	0x3eb16f03	0.34655008
43	0x3f0d620c	0.5522773
44	0x3e82756c	0.2548021
45	0x3e3ef1fc	0.18646997
46	0xbf974ff2	-1.1821272
47	0xbe102125	-0.14075144
48	0xbead03ee	-0.3379206
49	0x3e628c94	0.22123939
50	0xbdc61eac	-0.09673819
51	0x3f02b7fd	0.51061994
52	0x3caa0554	0.020754494
53	0x3dfe559b	0.12418672
54	0x3e373cf3	0.17894344
55	0xbe934e54	-0.28770697
56	0x3f71708c	0.9431236
57	0x3e39ae52	0.18132904
58	0xbeba1658	-0.36345172
59	0xbe05e1de	-0.13074443
60	0xbd2fc08d	-0.04290824
61	0xbf0b1c3c	-0.5433996
62	0xbe1d456d	-0.15358515
63	0xbe3b1214	-0.18268615
64	0xbd8bc690	-0.06824982
65	0xbf24eaec	-0.6442096
66	0x3efa57a9	0.48895004
67	0xbf16b77d	-0.5887373
68	0x3f353479	0.7078319
69	0xbd29f11e	-0.041489713
70	0x3f308b77	0.68962806
71	0xbe59b4a2	-0.21260312
72	0xbe0bb03d	-0.13641448
73	0x3d328690	0.04358536
74	0xbdb60ba4	-0.08888939
75	0x3dea16fe	0.11430167
76	0xbc5ec4f2	-0.01359676
77	0x3ed513f1	0.41616777
78	0x3e066584	0.13124663
79	0x3eb4d462	0.35318285
80	0x3e9a0011	0.30078176
81	0x3da0615a	0.07831068
82	0x3e802425	0.25027576
83	0x3f42e89a	0.7613617
84	0xbea22433	-0.31668243
85	0xbeb14908	-0.3462603
86	0xbf309a89	-0.689858
87	0xbe1f4ea7	-0.15557347
88	0x3e82fff5	0.25585905
89	0x3e5dfd88	0.21678746
90	0x3dd86490	0.10566056
91	0xbf4d25b0	-0.8013563
92	0x3daad087	0.08340555
93	0xbe8ed749	-0.27898625
94	0xbc20929f	-0.009800582
95	0x3f29f4b3	0.66389006
96	0x3e8149ef	0.2525172
97	0x3f904137	1.1269902
98	0xbef94018	-0.48681712
99	0x3ea7e5ef	0.32792613
100	0xbed228c2	-0.4104672
101	0x3e859cee	0.2609629
102	0xbed75353	-0.4205576
103	0x3ee5fda6	0.4492008
104	0xbeae74ef	-0.34073588
105	0xbc48bd8f	-0.012252226
106	0x3ef843b3	0.4848915
107	0xbc9485d2	-0.018130217
108	0x3deb153e	0.11478661
109	0xbc62a2e1	-0.013832779
110	0x3e8cb323	0.2748042
111	0xbf9499a2	-1.1609385
112	0x3f01e8c7	0.50745815
113	0x3d98e4cb	0.07465514
114	0xbf0c6438	-0.5484042
115	0x3f533e56	0.8251699
116	0xbe2290c1	-0.15875532
117	0x3dd5957e	0.10428904
118	0xbf02e58a	-0.511315
119	0xbed7497b	-0.4204825
120	0x3ec02233	0.37526092
121	0xbe448d30	-0.19194484
122	0x3ecf3307	0.40468618
123	0xbd222307	-0.039584186
124	0x3e60c320	0.21949434
125	0xbe9bd37b	-0.30434784
126	0xbddac4fe	-0.106821045
127	0x3d20e968	0.039285094
128	0xbf4a826d	-0.79105264
129	0xbe5813e9	-0.21101345
130	0x3f56ade4	0.83859086
131	0xbef285d8	-0.4736774
132	0x3d046c25	0.032329697
133	0x3d70e528	0.05881229
134	0x3f86c8ea	1.0530064
135	0xbe141575	-0.1446131
136	0x3ec497cd	0.38397065
137	0xbdb5788d	-0.08860884
138	0xbd93172c	-0.07182154
139	0xbcabc34d	-0.02096715
140	0xbf395b32	-0.7240478
141	0x3e489032	0.19586256
142	0xbe254a97	-0.16141735
143	0x3f1088b8	0.56458616
144	0xbeec5969	-0.46161965
145	0xbf112bc3	-0.567074
146	0x3f8a44aa	1.0802205
147	0xbf50b00b	-0.8151862
148	0x3f1530d5	0.58277637
149	0xbe2062a8	-0.15662634
150	0x3f516603	0.8179628
151	0xbeaee42e	-0.34158462
152	0xbe0c1750	-0.13680768
153	0x3cb4351d	0.021997983
154	0xbf1712df	-0.5901317
155	0xbf04ace5	-0.51826316
156	0xbf05307f	-0.52027124
157	0x3f45727c	0.77127814
158	0x3eade8e9	0.3396676
159	0x3f4026fe	0.750595
160	0x3cf411ae	0.029793587
161	0xbee94525	-0.45560566
162	0xbdadcafa	-0.0848598
163	0xbe1af0a6	-0.15130863
164	0x3ec4ed78	0.38462424
165	0xbdcd1ff6	-0.10015862
166	0xbe65fbbb	-0.22459309
167	0x3f3bc18b	0.733422
168	0x3f1efbc4	0.62102914
169	0xbabc0fb3	-0.001434794
170	0xbec7a4cc	-0.38992918
171	0xbe3db626	-0.18526515
172	0xbf58afaa	-0.8464304
173	0x3f1d4457	0.61432403
174	0xbf3b2d5c	-0.7311609
175	0x3f00cd8b	0.50313634
176	0x3f22d683	0.6360857
177	0x3e8344c2	0.25638396
178	0x3c8771ad	0.016533697
179	0xbe9e3e26	-0.3090679
180	0x3e88c4a9	0.2671254
181	0xbd19fbb2	-0.03759355
182	0xbe6fc8db	-0.23416464
183	0xbe845016	-0.2584235
184	0xbea17682	-0.31535727
185	0xbea4e7b5	-0.32208028
186	0xbe9070f7	-0.28211185
187	0x3e526aea	0.20548597
188	0x3e6afecf	0.22948764
189	0xbe87f415	-0.26553407
190	0x3e8c5641	0.27409557
191	0x3d40d358	0.047076553
192	0x3e98627c	0.29762638
193	0x3e78e7b5	0.24307139
194	0xbd64d76c	-0.055869505
195	0xbe9fafe2	-0.31188875
196	0xbb1841cd	-0.002323258
197	0x3f09a83d	0.53772336
198	0x3d85ee5d	0.06539605
199	0xbecd7aa4	-0.4013263
200	0xbf7ccfac	-0.9875438
201	0xbea71457	-0.32632706
202	0x3da42748	0.08015305
203	0x3e7fe9d4	0.24991542
204	0x3df52eea	0.11971839
205	0x3eea40a7	0.4575245
206	0xbd6b4521	-0.057438973
207	0x3d7080da	0.058716632
208	0xbf2fcbcd	-0.6867035
209	0x3f4df297	0.8044829
210	0xbedf183c	-0.43573177
211	0x3eba42a1	0.3637896
212	0xbf371062	-0.71509373
213	0x3e8f796d	0.28022328
214	0xbe356730	-0.17715144
215	0xbe3ed5aa	-0.18636194
216	0x3ed9e473	0.42557105
217	0xbda8720b	-0.08224877
218	0xbea563b5	-0.32302633
219	0xbd3d9e8f	-0.04629379
220	0x3ea4a33c	0.32155788
221	0xbe9e133d	-0.30874053
222	0x3e516682	0.2044926
223	0x3e1cefdc	0.15325874
224	0x3e7da10e	0.24768469
225	0xbe8fddeb	-0.28098997
226	0xbead629a	-0.3386429
227	0x3f41593d	0.7552679
228	0xbf1cba61	-0.6122189
229	0xbeb59079	-0.35461786
230	0xbebe6d9b	-0.37192997
231	0x3ec3cdc8	0.38242936
232	0xbf59db1c	-0.8509996
233	0xbe0559f3	-0.13022594
234	0x3f059bb4	0.5219071
235	0xbc1f6237	-0.009728006
236	0x3e4588cc	0.19290465
237	0x3e4a544d	0.1975872
238	0xbe076c31	-0.13224865
239	0xbededb70	-0.43526793
240	0x3e3516af	0.17684434
241	0xbe9fbdc2	-0.3119946
242	0x3f970dc7	1.180108
243	0xbeb903e6	-0.36135787
244	0xbe706a60	-0.23478079
245	0xbd32e239	-0.043672774
246	0xbf0a89ea	-0.5411669
247	0xbf1faf46	-0.6237682
248	0x3f00f7b3	0.5037796
249	0xbd1fe9b4	-0.039041236
250	0x3ebadaae	0.36494964
251	0xbdcab1a8	-0.098971665
252	0x3e228a52	0.15873078
253	0xbdb0e29a	-0.08636971
254	0xbefdbc94	-0.49557936
255	0x3e35fe26	0.17772731

model.encoder.layers.0.self_attn.in_proj_bias f4 [48]
0	0xbf8b1ef3	-1.086882
1	0xbf1b618a	-0.6069571
2	0x3e86630d	0.26247445
3	0xbc348d12	-0.011019962
4	0xbeb47d68	-0.35251927
5	0x3ec7c0da	0.39014322
6	0xbd0b9c4f	-0.034084614
7	0xbefc34ed	-0.4925913
8	0xbed0dccd	-0.40793458
9	0x3ecf58f7	0.40497562
10	0x3f026bfb	0.50946015
11	0xbf42eb68	-0.7614045
12	0x3f1b36c0	0.60630417
13	0x3e463c08	0.19358838
14	0xbe6d38b7	-0.23166166
15	0xbea0fc8f	-0.31442687
16	0x3c2c4dcd	0.010516596
17	0x3b1ef207	0.0024253146
18	0xb9c22cbd	-0.00037035896
19	0x3b627f0f	0.0034560596
20	0x3a9ae339	0.0011816985
21	0xbb3b8ddd	-0.0028618493
22	0x39b63a88	0.00034757354
23	0x3ba035cc	0.0048892256
24	0xbc23c25b	-0.009995068
25	0xba975a72	-0.001154734
26	0xbb93048d	-0.0044866265
27	0x3ae73404	0.0017639403
28	0x3b2ca7ab	0.0026345055
29	0xbab688ee	-0.0013926306
30	0x3b500a16	0.0031744293
31	0xb83f080c	-4.5545443e-05
32	0xbbf0cfa9	-0.007348974
33	0x3cf868b2	0.03032336
34	0xbccb63a5	-0.024827788
35	0x3d31f80b	0.043449443
36	0xbd6375bf	-0.055532213
37	0xbb439a56	-0.002984663
38	0xbce9015c	-0.028443031
39	0x3aca0368	0.0015412392
40	0x3b9e7f24	0.0048369337
41	0xbd6050c6	-0.05476453
42	0x3dc83275	0.09775249
43	0x3e07fb04	0.13279349
44	0xbca59d8f	-0.020216731
45	0xbdfd1d8e	-0.12359153
46	0x3cfe296d	0.031025613
47	0x3d971576	0.0737714

model.encoder.layers.0.self_attn.out_proj.weight f4 [16, 16]
0	0xbd8cbb9c	-0.06871721
1	0xbefee2c8	-0.49782395
2	0x3e6236eb	0.22091262
3	0xbd181eb7	-0.037138667
4	0x3f94edec	1.1635108
5	0x3e8342bf	0.2563686
6	0xbecf845b	-0.40530667
7	0x3f68f0a6	0.909922
8	0x3ea6c7cd	0.3257431
9	0x3eaa0fa7	0.33215067
10	0x3ee855bb	0.45377907
11	0x3c19c2f5	0.00938486
12	0x3da578c3	0.08079674
13	0xbec54485	-0.3852884
14	0x3f5673aa	0.8377024
15	0x3e7dba1a	0.24778023
16	0xbf0adadf	-0.5424022
17	0x3e2b82d4	0.16749126
18	0xbe2887e6	-0.16458091
19	0x3f093084	0.53589654
20	0xbe6ec091	-0.23315646
21	0xbf144ffc	-0.57934546
22	0xbd6102c0	-0.054934263
23	0xbf6796f3	-0.90464705
24	0x3ec5a63e	0.38603395
25	0x3e0f787e	0.14010808
26	0x3cdc6fff	0.026908873
27	0x3dddd7e2	0.10832192
28	0x3edcb0d1	0.4310365
29	0xbc04b9bc	-0.008100923
30	0xbf1bdbcf	-0.60882276
31	0x3de7c7c9	0.11317403
32	0xbd625eb1	-0.055266086
33	0x3e387d4c	0.18016547
34	0xbea9d371	-0.3316913
35	0xbf18817a	-0.59572566
36	0xbf546a29	-0.8297449
37	0xbe3cf6f0	-0.18453574
38	0x3e8ab286	0.27089328
39	0x3d5afa5b	0.053461414
40	0x3e710b26	0.23539409
41	0xbf249213	-0.6428539
42	0xbf54f461	-0.8318539
43	0xbf8285da	-1.0197098
44	0xbf40335f	-0.75078386
45	0xbe73eadd	-0.23820062
46	0xbe49fe3a	-0.19725886
47	0x3eb1b28c	0.34706533
48	0x3e13a79b	0.14419405
49	0xbe01ab3c	-0.12662977
50	0xbcf27de7	-0.02960105
51	0xbe4ab5ce	-0.19795915
52	0x3ea07a3f	0.31343266
53	0xbf27f225	-0.6560386
54	0xbf5a714d	-0.85329133
55	0xbed56333	-0.41677245
56	0x3f263a31	0.64932543
57	0x3e360c00	0.17778015
58	0x3e40bf53	0.18822984
59	0xbb84a1c0	-0.0040476024
60	0x3f51a5ad	0.81893426
61	0x3e35e2cc	0.17762297
62	0x3f3809e0	0.7189007
63	0xbeaac1ba	-0.33350927
64	0x3e9da4f4	0.30789912
65	0xbdca9bc6	-0.09892993
66	0x3e056f81	0.13030817
67	0xbed9ea83	-0.4256173
68	0xbe148bec	-0.14506501
69	0x3f027e2c	0.50973773
70	0xbd0d80e0	-0.034546733
71	0x3ecdb8b4	0.4017998
72	0x3cbe0581	0.023195984
73	0xbe241899	-0.16025008
74	0x3e975a73	0.29561195
75	0x3f055fd9	0.52099377
76	0xbe941f28	-0.2893002
77	0xbe2c17f6	-0.16806015
78	0xbe76f763	-0.24117808
79	0x3ee39cc9	0.44455555
80	0x3d413a61	0.047174815
81	0x3ec854b6	0.3912713
82	0x3d7da5a5	0.06192555
83	0xbe2fe646	-0.17177686
84	0xbe990a04	-0.29890454
85	0x3f17fc02	0.5936891
86	0x3f2844a4	0.6572974
87	0xbe4fb7f1	-0.20285012
88	0xbf5e8b34	-0.8693116
89	0xbdfb170b	-0.122602545
90	0xb8ef0e50	-0.00011399074
91	0xbe90e9ab	-0.28303275
92	0x3e886e97	0.26646873
93	0xbeb74ff7	-0.35803196
94	0x3f01e339	0.5073734
95	0x3de5002d	0.11181674
96	0xbedb5fd3	-0.42846546
97	0xbedef94e	-0.4354958
98	0x3f5b88a1	0.85755354
99	0xbe854424	-0.2602855
100	0xbddab114	-0.10678306
101	0x3ee95500	0.45572662
102	0x3f09801c	0.53711104
103	0xbea4e328	-0.32204556
104	0x3e946012	0.28979546
105	0xbe2f3507	-0.17110072
106	0x3e187bbc	0.14890951
107	0xbf04bc6e	-0.5185002
108	0xbec44e74	-0.38341105
109	0xbe9104d3	-0.28323993
110	0xbe10983b	-0.14120571
111	0xbf0916df	-0.53550524
112	0x3e962a47	0.2932913
113	0x3ec8e988	0.3924067
114	0x3e47e01a	0.19519082
115	0xbf19477c	-0.598747
116	0x3e034eb4	0.12822992
117	0xbed7c631	-0.42143396
118	0xbf051a1b	-0.5199296
119	0x3f1b7a57	0.6073355
120	0xbecab603	-0.3959199
121	0x3f4090ca	0.7522093
122	0xbf207acb	-0.6268737
123	0x3d7665bd	0.06015562
124	0xbeff3705	-0.49846664
125	0x3df5c536	0.120005056
126	0x3bd85510	0.006601937
127	0xbf592709	-0.8482519
128	0xbe46e383	-0.19422726
129	0xbde2cbfd	-0.11074064
130	0x3e4bb4e9	0.1989323
131	0x3ea16221	0.3152018
132	0x3ece2a48	0.40266633
133	0x3e606f5d	0.21917482
134	0x3edee4d1	0.43533948
135	0xbd99f068	-0.07516557
136	0x3d25b8bd	0.040459383
137	0x3e9262ab	0.28590903
138	0x3ba1b2df	0.004934653
139	0x3f0cdbcc	0.55022883
140	0xbf56ce71	-0.83908755
141	0x3b703052	0.0036649895
142	0x3c18d3f6	0.009327879
143	0xbed199ff	-0.40937802
144	0xbe098cf3	-0.13432674
145	0x3e589cc0	0.21153545
146	0xbedbcebb	-0.4293116
147	0x3f09a74b	0.53770894
148	0x3de716c0	0.11283636
149	0xbee1c3e9	-0.4409478
150	0xbd9ddcd4	-0.07708135
151	0x3e8ef687	0.2792246
152	0xbe1e0f94	-0.1543563
153	0xbda1c540	-0.078989506
154	0xbefc88cc	-0.49323118
155	0x3e5247a5	0.20535143
156	0xbeca0b06	-0.39461535
157	0xbda71ee0	-0.08160186
158	0xbe0271a4	-0.12738663
159	0xbd7004b8	-0.05859825
160	0xbe2bf8e7	-0.16794167
161	0xbf8d17bb	-1.1022867
162	0x3d1dad40	0.038495302
163	0xbdbbc892	-0.09169115
164	0x3ef9cbdd	0.48788348
165	0xbf1455c8	-0.5794339
166	0xbab82705	-0.0014049715
167	0x3e9f71ac	0.31141412
168	0x3e28a77d	0.16470142
169	0x3d882802	0.06648256
170	0xbe93ef58	-0.28893542
171	0xbeb63a34	-0.3559128
172	0x3e381e9e	0.1798043
173	0x3d81af18	0.063322246
174	0xbdf95b2e	-0.12175594
175	0xbcf536c3	-0.029933339
176	0x3ef00b95	0.46883836
177	0x3e0e9878	0.1392535
178	0xbdc2fa97	-0.095204525
179	0x3d3469de	0.044046275
180	0xbe96622e	-0.2937178
181	0xbe2a8ecc	-0.16656035
182	0x3f29edc4	0.66378427
183	0xbe2f6a52	-0.17130402
184	0xbaca904b	-0.001545438
185	0xbf1cb4ec	-0.61213565
186	0xbd3f20f4	-0.046662286
187	0x3cbbc014	0.022918738
188	0x3f4e2475	0.8052438
189	0x3e6ce141	0.23132803
190	0xbe848ce9	-0.25888756
191	0x3cce5db0	0.025191158
192	0x3edd2c6e	0.4319796
193	0x3ecc1063	0.39856252
194	0x3de0a8f9	0.10969729
195	0x3f729228	0.94754267
196	0x3ec95050	0.39319086
197	0xbeccb1e8	-0.39979482
198	0x3f43fe03	0.76559466
199	0x3e7ebd90	0.24877
200	0x3e9f7ba1	0.3114901
201	0xbe535742	-0.20638755
202	0x3cb78c53	0.022405779
203	0xbe3e4420	-0.18580675
204	0xbd49129f	-0.049090024
205	0x3e6c8a64	0.23099667
206	0x3e96d2d5	0.29457727
207	0x3ee7b968	0.4525864
208	0xbe8a24a4	-0.2698108
209	0x3e96dc6d	0.29465047
210	0xbe89513a	-0.26819783
211	0x3d3390a3	0.04383911
212	0xbe57d40d	-0.21076985
213	0x3f31749b	0.6931855
214	0xbf2786d2	-0.65440094
215	0xbeaf0548	-0.34183717
216	0xbe7cc20b	-0.24683397
217	0xbf1dbdfc	-0.6161802
218	0x3e34a978	0.17642772
219	0x3dca0c08	0.09865576
220	0xbe7ce65d	-0.24697252
221	0x3f079f02	0.52977
222	0x3f139cad	0.57660943
223	0xbe439245	-0.19098766
224	0x3e56d0a8	0.20978034
225	0x3eff2c05	0.49838272
226	0xbf24a789	-0.6431814
227	0xbed23dcf	-0.4106278
228	0xbeb0f0ba	-0.3455866
229	0xbdbcbc63	-0.092156194
230	0xbd22807c	-0.039673313
231	0xbdab1ae5	-0.08354739
232	0x3e942a45	0.289385
233	0xbea2afb7	-0.31774685
234	0x3e4dea1d	0.20108838
235	0xbd6f1d03	-0.058377277
236	0xbd50afc4	-0.050948873
237	0x3dc577b8	0.09641975
238	0x3e849dcd	0.25901642
239	0xbdd6144f	-0.10453092
240	0xbebd4480	-0.36966324
241	0xbe8560c4	-0.2605039
242	0x3e90d935	0.28290716
243	0x3eaf086f	0.34186122
244	0x3e96cbec	0.29452455
245	0xbe2f55cd	-0.17122574
246	0xbc2aebba	-0.010432178
247	0xbdc441c0	-0.09582853
248	0xbeded188	-0.43519235
249	0xbe65cca7	-0.2244135
250	0x3be126e8	0.006871093
251	0x3f0ca5c9	0.5494047
252	0x3e864978	0.26227927
253	0x3d8e1f54	0.06939569
254	0xbf556360	-0.8335476
255	0xbe969e85	-0.29417816

model.encoder.layers.0.self_attn.out_proj.bias f4 [16]
0	0xbebf43e5	-0.37356487
1	0xbd8c1794	-0.06840435
2	0x3e7b4d15	0.24541123
3	0xbe692c75	-0.22770865
4	0x3d8ee299	0.06976814
5	0x3decf8a4	0.11570862
6	0x3e8acdac	0.2711004
7	0xbe28bd23	-0.164784
8	0x3b238be4	0.0024955207
9	0xbd05badd	-0.03264891
10	0xbe507c5b	-0.20359938
11	0x3e85ad1e	0.2610864
12	0xbecb7d68	-0.39744115
13	0x3ea08c87	0.31357214
14	0xbe3644ea	-0.17799726
15	0x3e5b9fe3	0.2144771

model.encoder.layers.0.linear1.weight f4 [128, 16]
0	0xbed9de65	-0.42552486
1	0x3f379665	0.7171386
2	0xbf818ce3	-1.012112
3	0x3e4cf419	0.20014991
4	0x3e2cbfc7	0.16870032
5	0xbdfe8513	-0.12427726
6	0xbe5d19fd	-0.21591945
7	0xbf0a6313	-0.54057425
8	0x3f89c373	1.0762771
9	0xbef3926c	-0.4757265
10	0xbe59ef5e	-0.21282718
11	0x3f182219	0.5942703
12	0xbf51ef1b	-0.8200547
13	0x3e9993e2	0.29995638
14	0x3e5d6604	0.21620947
15	0x3eaa2bcc	0.3323654
16	0x3f2dd52f	0.6790342
17	0x3ef998cb	0.48749384
18	0x3e739f08	0.23791134
19	0x3e5c8c0c	0.21537799
20	0xbf1d8d87	-0.6154408
21	0xbf871697	-1.0553769
22	0xbea49d15	-0.32151094
23	0x3e9ffd6e	0.3124804
24	0xbea48433	-0.3213211
25	0xbeb1ad60	-0.34702587
26	0xbea27385	-0.3172876
27	0xbfb032d2	-1.3765509
28	0x3eb48bf3	0.35263023
29	0x3ed5f1c8	0.41786027
30	0x3f4a1392	0.7893611
31	0x3e105c41	0.14097692
32	0x3ee3879a	0.44439393
33	0x3f1d9615	0.6155713
34	0x3eed97dc	0.46404922
35	0x3e643d75	0.22289069
36	0x3ceedb62	0.029157344
37	0x3f76de72	0.96433175
38	0xbe8385d5	-0.25688043
39	0x3d374b2e	0.04474943
40	0x3e48b9f2	0.19602183
41	0x3e7bb8ae	0.24582168
42	0x3eb75ac6	0.35811442
43	0xbfa1664c	-1.2609344
44	0x3edfb757	0.43694565
45	0xbf425ec0	-0.7592583
46	0xbf5ff65b	-0.87485284
47	0xbf69d6f1	-0.913436
48	0x3e2e164b	0.17000692
49	0x3e8eb773	0.27874336
50	0xbe7467bf	-0.23867701
51	0x3e617f6d	0.22021265
52	0xbe4591cb	-0.19293897
53	0x3d99581b	0.07487508
54	0xbe209b40	-0.15684223
55	0x3dd2d479	0.10294432
56	0x3e818099	0.25293425
57	0xbd9088a8	-0.07057315
58	0x3d97bdbc	0.07409236
59	0xbe4c1ce2	-0.19932893
60	0xbe8989f4	-0.26863062
61	0x3e682856	0.22671637
62	0xbe20d7e3	-0.15707354
63	0x3e4d9f67	0.20080338
64	0x3f0e22cb	0.5552184
65	0x3e68938f	0.22712539
66	0x3dec8f6d	0.11550794
67	0x3e9182fc	0.28420246
68	0xbeea7052	-0.4578882
69	0x3ef6ac03	0.4817811
70	0x3e9ff72c	0.31243265
71	0x3e2e0775	0.16995032
72	0xbf21aa34	-0.63150334
73	0xbece920a	-0.40345794
74	0xbeb4fdfa	-0.3535002
75	0xbf63b711	-0.8895121
76	0x3e11e5a4	0.14247757
77	0xbef6a4e5	-0.4817268
78	0x3f4fa2e6	0.8110794
79	0x3e5200b3	0.20508079
80	0x3e852a54	0.26008856
81	0xbd80fe1b	-0.06298467
82	0xbf4e7552	-0.80647767
83	0x3e2c7234	0.1684044
84	0xbee7349d	-0.45157328
85	0xbec39817	-0.38201973
86	0xbe0f755d	-0.14009614
87	0x3f834bfc	1.0257564
88	0xbe82a7dc	-0.25518692
89	0x3e04f041	0.12982275
90	0x3f20bca5	0.6278785
91	0x3f32c7c7	0.69836086
92	0x3e68b4e7	0.22725259
93	0xbeef5f19	-0.4675224
94	0x3ca7ec70	0.020498484
95	0xbe8b73c0	-0.27236748
96	0x3e3362ae	0.17518112
97	0x3f32c8b3	0.6983749
98	0xbe1122bb	-0.14173405
99	0xbe973956	-0.2953593
100	0xbd9ec54c	-0.07752475
101	0x3f1057f1	0.5638419
102	0x3e4c3790	0.1994307
103	0xbe3a6595	-0.18202813
104	0x3f4889c3	0.7833521
105	0xbf21e170	-0.63234615
106	0xbda64b0a	-0.08119781
107	0x3e2d7241	0.16938116
108	0xbfb80e4e	-1.4379365
109	0x3d9090e2	0.07058884
110	0x3e28258d	0.16420574
111	0x3e93b60e	0.28849834
112	0xbef40b8d	-0.47665063
113	0xbefc7904	-0.49311078
114	0x3db9c020	0.09069848
115	0x3f335854	0.70056653
116	0x3f5da252	0.86575806
117	0x3ea5c70d	0.32378426
118	0xbf0c5b64	-0.5482695
119	0x3e8911ec	0.26771486
120	0xbf0cd65e	-0.550146
121	0xbf2b4192	-0.6689693
122	0x3f2b27d0	0.66857624
123	0x3e5e84dd	0.21730371
124	0xbf168f6f	-0.5881261
125	0x3f146378	0.5796428
126	0x3e71506c	0.23565835
127	0xbf625214	-0.8840649
128	0x3d436cd1	0.047711197
129	0x3db4b211	0.08823026
130	0xbda1c011	-0.07897962
131	0x3c4f6e80	0.012660623
132	0xbd765d0a	-0.060147323
133	0x3d2af7b5	0.041740138
134	0x3dbc8461	0.09204937
135	0x3d6e484b	0.058174413
136	0x3ced72fd	0.028985495
137	0x3ce5fd42	0.028074864
138	0xbd91cc8b	-0.071190916
139	0x3d71d609	0.05904201
140	0x3d0f932d	0.035052467
141	0x3dd1c9dc	0.1024358
142	0xbd016e2f	-0.03159922
143	0x3e1293ce	0.14314196
144	0x3e23c404	0.15992743
145	0xbe060bab	-0.13090388
146	0xbf811657	-1.0084943
147	0xbd293a95	-0.041315634
148	0x3f12e3d5	0.57378894
149	0x3e87058d	0.26371422
150	0xbe7c2bde	-0.24626109
151	0x3e15d9f9	0.14633931
152	0x3e3049a2	0.17215589
153	0xbdc4e2ce	-0.09613572
154	0x3e07c210	0.13257623
155	0xbddb1dd4	-0.10699049
156	0x3e93ae82	0.28844076
157	0xbe961648	-0.29313874
158	0x3ec4b0e7	0.38416216
159	0xbf337c7f	-0.7011184
160	0xbf18d26d	-0.59696084
161	0xbc849860	-0.01618594
162	0xbf26fa0e	-0.65225303
163	0xbe0d632a	-0.1380736
164	0x3e7cdb44	0.24693018
165	0xbf0635e5	-0.52425987
166	0xbf35eaff	-0.710617
167	0x3f6530bd	0.89527494
168	0x3ee6d51e	0.4508447
169	0x3f2e1e3b	0.6801488
170	0xbe3bc08e	-0.18335173
171	0xbf309ba0	-0.68987465
172	0xbf14a097	-0.5805754
173	0x3f167bdf	0.5878276
174	0x3eaa8553	0.33304843
175	0x3f009d02	0.50239575
176	0x3d887b9f	0.06664204
177	0x3f2caad2	0.6744815
178	0xbf045e6f	-0.51706594
179	0x3c25c315	0.010117312
180	0xbdc510d4	-0.0962235
181	0x3eb7582c	0.35809457
182	0x3e8a4611	0.2700658
183	0xbe4ed5c8	-0.20198739
184	0xbf03d510	-0.5149698
185	0x3f68a996	0.9088377
186	0xbdabc3c5	-0.083869494
187	0xbce6f323	-0.028192108
188	0xbf3ec601	-0.7452088
189	0xbe032c47	-0.12809859
190	0xbeb9e8eb	-0.36310515
191	0xbeb4f550	-0.3534341
192	0x3e15dff8	0.14636219
193	0x3e613c29	0.21995606
194	0xbe0532b6	-0.13007626
195	0x3f072e6f	0.5280523
196	0x3e04f5b0	0.12984347
197	0x3d69c10e	0.057068877
198	0xbee4245d	-0.44558993
199	0x3f79ffbc	0.97655845
200	0x3eec173d	0.4611148
201	0xbe6b7435	-0.22993548
202	0xbd08f932	-0.033440776
203	0xbec71257	-0.3888118
204	0x3da2db19	0.07951946
205	0xbdc5f628	-0.09666091
206	0xbe155299	-0.1458229
207	0xbf7e1197	-0.9924559
208	0xbef8d0c3	-0.48596773
209	0x3e6f3084	0.23358351
210	0x3f08374e	0.5320939
211	0xbf1d13b2	-0.6135818
212	0x3f0c022d	0.5469082
213	0xbec69fcc	-0.3879379
214	0xbea7c748	-0.32769227
215	0x3f09810b	0.5371253
216	0x3f567e4f	0.8378648
217	0xbec345f5	-0.3813931
218	0x3f04ec9b	0.5192353
219	0xbeae792d	-0.34076825
220	0x3e9dc225	0.30812183
221	0x3eadf9d1	0.33979657
222	0xbeca3510	-0.39493608
223	0xbf201f56	-0.62547815
224	0x3e49a931	0.19693448
225	0x3cf2e085	0.029648075
226	0xbf424b93	-0.7589657
227	0xbd40d6d5	-0.04707988
228	0x3d82f1b8	0.063937604
229	0x3ec804dd	0.3906621
230	0x3e5f1e29	0.21788849
231	0xbd768d42	-0.060193308
232	0x3e120587	0.14259921
233	0xbc928b8d	-0.017888809
234	0x3e85d1be	0.26136583
235	0xbe06fa89	-0.13181509
236	0xbb1f25d1	-0.0024284015
237	0xbe9b7129	-0.30359772
238	0x3e9c5bb0	0.30538702
239	0xbed07ea1	-0.4072161
240	0x3ec10d59	0.37705496
241	0x3f1133b7	0.56719536
242	0xbdd4a1fc	-0.103824586
243	0x3e955f8b	0.29174456
244	0xbe8266a4	-0.25468934
245	0x3d5b33ae	0.053516082
246	0xbebfab35	-0.37435308
247	0xbd59e699	-0.05319843
248	0xbe3ab936	-0.18234715
249	0xbf407fd7	-0.7519507
250	0x3edfe982	0.4373284
251	0xbf373f78	-0.7158122
252	0xbde6b62f	-0.112652175
253	0xbe63c125	-0.22241648
254	0x3e974a8c	0.29549062
255	0x3eb27693	0.3485609

model.encoder.layers.0.linear1.bias f4 [128]
0	0xbf47607c	-0.778816
1	0xbf658c79	-0.8966747
2	0xbf4981a3	-0.78713435
3	0xbf40ee90	-0.7536402
4	0xbf6ed940	-0.9330025
5	0xbfa41b0a	-1.2820752
6	0xbf632a03	-0.8873598
7	0xbfb15320	-1.3853493
8	0xbf0874c6	-0.5330318
9	0xbf656519	-0.8960739
10	0xbf923170	-1.1421337
11	0xbe9e4004	-0.30908215
12	0xbf309c70	-0.68988705
13	0xbfa4ce8f	-1.2875537
14	0xbf8277d6	-1.0192821
15	0xbeff1a4d	-0.49824753
16	0xbf061c15	-0.523866
17	0xbf28c81a	-0.6593033
18	0xbf80a55a	-1.0050461
19	0xbf4e99ce	-0.8070344
20	0xbee507d6	-0.4473254
21	0xbf6132bf	-0.8796806
22	0xbf609e64	-0.87741685
23	0xbf561daa	-0.83639014
24	0xbf880398	-1.0626097
25	0xbeb9e021	-0.3630381
26	0xbf4f7745	-0.81041366
27	0xbf1478d2	-0.5799686
28	0xbf558fb1	-0.8342238
29	0xbf94dda6	-1.1630142
30	0xbfc3ce12	-1.5297263
31	0xbf3c9496	-0.73664224
32	0xbecbaac9	-0.39778736
33	0xbf1621af	-0.5864515
34	0xbf11733f	-0.56816477
35	0xbf11de41	-0.5697976
36	0xbe81e8af	-0.25372836
37	0xbf9b4db3	-1.2133087
38	0xbf6d1d2c	-0.9262264
39	0xbf6c0387	-0.9219288
40	0xbf625876	-0.8841623
41	0xbf1f0c6f	-0.6212835
42	0xbf0d0daf	-0.55099005
43	0xbfbd6e0a	-1.4799206
44	0xbf594925	-0.84877235
45	0xbf86b450	-1.0523777
46	0xbf877d9e	-1.058521
47	0xbf666b22	-0.9000722
48	0xbf32d44d	-0.69855195
49	0xbe7bf281	-0.24604227
50	0xbf75909e	-0.95923793
51	0xbebe36ad	-0.3715109
52	0xbf27eae3	-0.65592784
53	0xbf65c0ee	-0.8974751
54	0xbe9f1947	-0.31073973
55	0xbef7a857	-0.4837062
56	0xbf5ac539	-0.8545719
57	0xbf3611be	-0.7112082
58	0xbee81bc8	-0.45333695
59	0xbf1e0fd3	-0.61742896
60	0xbf4bd8c9	-0.7962766
61	0xbf841ea3	-1.032185
62	0xbf27a8cc	-0.6549194
63	0xbf2328c5	-0.63734084
64	0xbf6f195a	-0.9339806
65	0xbf80c4a7	-1.0060014
66	0xbf434490	-0.76276493
67	0xbf728b40	-0.9474373
68	0xbeed456a	-0.4634202
69	0xbf1ee81f	-0.6207294
70	0xbe5ab10c	-0.213566
71	0xbf665436	-0.89972246
72	0xbf3213c8	-0.69561434
73	0xbfbd202c	-1.4775443
74	0xbf6e2690	-0.9302759
75	0xbf725675	-0.9466317
76	0xbef73281	-0.4828072
77	0xbed663e4	-0.41873085
78	0xbf0b2c2c	-0.54364276
79	0xbf0b40f5	-0.5439599
80	0xbf745e83	-0.95456713
81	0xbf3f77e9	-0.74792343
82	0xbf434f92	-0.7629329
83	0xbed4f8e2	-0.41596133
84	0xbeef7ef0	-0.46776533
85	0xbf1fdfcc	-0.6245086
86	0xbf0147c8	-0.50500154
87	0xbcfa2f08	-0.030540004
88	0xbf3e8617	-0.74423355
89	0xbf0d973f	-0.5530891
90	0xbef55cca	-0.47922355
91	0xbf57dbd6	-0.8431982
92	0xbf82ad10	-1.0209064
93	0xbf1d28e5	-0.61390525
94	0xbe8a3649	-0.2699454
95	0xbf87b3b4	-1.0601716
96	0xbf05741c	-0.52130294
97	0xbf886e11	-1.065859
98	0xbec07cb7	-0.3759515
99	0xbef829a5	-0.48469272
100	0xbfc14dc9	-1.5101863
101	0xbf298d78	-0.6623149
102	0xbe90fda9	-0.28318527
103	0xbf0d2231	-0.55130297
104	0xbf88cb15	-1.0686976
105	0xbf2c1037	-0.6721224
106	0xbecbb121	-0.39783576
107	0xbf0b37ce	-0.54382026
108	0xbf2e5041	-0.6809121
109	0xbe8101bd	-0.2519664
110	0xbf30aa1b	-0.6900956
111	0xbf5c9483	-0.8616411
112	0xbf80cddd	-1.0062824
113	0xbedf0373	-0.4355732
114	0xbe812ab6	-0.25227898
115	0xbf84e977	-1.0383748
116	0xbe5e6e02	-0.21721652
117	0xbf24e4b4	-0.64411473
118	0xbf1c0980	-0.60951996
119	0xbf6d51b0	-0.9270277
120	0xbf841552	-1.0319006
121	0xbfacd40b	-1.350221
122	0xbea1c8af	-0.31598422
123	0xbf6a414e	-0.915059
124	0xbeb81e6b	-0.35960707
125	0xbf9a9613	-1.2077049
126	0xbf4fad0f	-0.8112344
127	0xbf96f96a	-1.1794865

model.encoder.layers.0.linear2.weight f4 [16, 128]
0	0xbd6d91dc	-0.05800043
1	0x3ead0aa6	0.33797187
2	0x3e005943	0.1253405
3	0x3db7e104	0.08978465
4	0x3d67ce86	0.05659344
5	0xbe9926e0	-0.29912472
6	0xbfa1d24c	-1.2642303
7	0xbcd852f6	-0.026406746
8	0x3ddfde8c	0.10931119
9	0xbd05487e	-0.032539837
10	0xbe3498dd	-0.17636438
11	0xbd7c99b1	-0.06167001
12	0x3eaf656f	0.34257075
13	0xbf68fdcd	-0.9101227
14	0xbdf19be3	-0.11797311
15	0xbe3567fc	-0.17715448
16	0x3f78f871	0.9725409
17	0xbf919262	-1.1372797
18	0x3da9f991	0.08299554
19	0xbf632803	-0.8873293
20	0xbeae48c9	-0.34039906
21	0xbf6cdb5a	-0.92522204
22	0xbbe0b220	-0.0068571717
23	0xbe0693cb	-0.13142316
24	0xbbc563a8	-0.006023843
25	0xbe21a3fd	-0.15785213
26	0xbf0db89e	-0.5535983
27	0x3ea305e7	0.3184044
28	0xbf70ce0c	-0.940644
29	0x3b942508	0.004521016
30	0xbf881974	-1.0632768
31	0xbeb93881	-0.36175922
32	0x3f27f858	0.6561332
33	0xbe92e110	-0.28687334
34	0x3e540292	0.20704105
35	0xbf1347ce	-0.5753144
36	0xbe069c36	-0.13145527
37	0xbdb9b0e7	-0.090669446
38	0x3eb17797	0.34661552
39	0xbd55950b	-0.05214409
40	0x3e68e86e	0.22744915
41	0x3f24a165	0.6430877
42	0x3e7bfddf	0.24608563
43	0xbe6df2bf	-0.23237132
44	0x3ee3e71d	0.44512263
45	0x3ebf4f83	0.3736535
46	0xbe6be4bf	-0.23036478
47	0x3f0e0814	0.55481076
48	0xbebd375b	-0.36956295
49	0x3f09e1b6	0.5386003
50	0x3c93974c	0.01801648
51	0xbd6b905c	-0.05751072
52	0xbc164835	-0.009172489
53	0xbf85b898	-1.0446959
54	0x3dcba782	0.09944059
55	0xbe3bf9d0	-0.18357015
56	0x3f35bf67	0.7099518
57	0xbf02c523	-0.51082057
58	0x3fca3536	1.5797489
59	0x3f47e0f1	0.7807761
60	0xbfb31329	-1.3990222
61	0xbf501f12	-0.8129741
62	0x3e450f98	0.1924423
63	0xbf3d5149	-0.73952156
64	0xbd7f1ea3	-0.062285077
65	0xbed85108	-0.42249322
66	0x3e41eb81	0.18937494
67	0x3e96d41e	0.29458708
68	0xbee88ad4	-0.45418417
69	0xbeefae9e	-0.4681291
70	0x3e344798	0.17605436
71	0xbee8cfa5	-0.4547092
72	0x3da35124	0.07974461
73	0x3d2c9063	0.042129885
74	0x3ee30be0	0.44344997
75	0xbf5c0b65	-0.85954887
76	0xbe4c6fe0	-0.19964552
77	0xbf2c6ef8	-0.67356825
78	0x3e9847a6	0.29742163
79	0xbedce6a1	-0.43144706
80	0x3e3d43d6	0.18482909
81	0x3e48a8d6	0.19595656
82	0x3f23a0bf	0.63917154
83	0x3ece2139	0.40259722
84	0x3ea46fe4	0.32116616
85	0xbe990ca2	-0.2989245
86	0x3cba919f	0.022774516
87	0x3e2bb9c5	0.16770084
88	0x3ebb624b	0.3659843
89	0x3ef397bd	0.47576705
90	0x3d4bb7c6	0.049735807
91	0x3eb0ccee	0.3453135
92	0xbcfe49c3	-0.031041032
93	0x3c121cec	0.008918028
94	0x3eeb0d79	0.45908716
95	0x3e2f0f23	0.17095618
96	0x3f2e6aab	0.6813151
97	0x3e559423	0.20857291
98	0x3efde9e1	0.49592498
99	0xbf246e9b	-0.6423127
100	0x3ea92fbd	0.33044234
101	0x3bf93f72	0.00760644
102	0x3eb4fede	0.35350698
103	0xbd9dd88b	-0.07707318
104	0x3e9f89ba	0.31159765
105	0x3faa1452	1.3287451
106	0xbf20569c	-0.62632155
107	0xbf5a92c0	-0.8538017
108	0x3ed85a23	0.4225627
109	0xbd6f05fe	-0.058355324
110	0xbdc99765	-0.09843329
111	0xbddfc417	-0.10926073
112	0xbe0c3f28	-0.13695967
113	0xbdc7ff7d	-0.097655274
114	0x3eefbd49	0.468241
115	0x3eb17a87	0.34663793
116	0x3e987f23	0.29784498
117	0x3f44d2f7	0.76884407
118	0xbbc98601	-0.0061500077
119	0xbf8eb2d7	-1.1148328
120	0xbf732100	-0.9497223
121	0xbdb73b92	-0.08946909
122	0x3eb0c787	0.34527227
123	0x3c582116	0.013191482
124	0xbca91434	-0.020639516
125	0xbf6027bb	-0.87560624
126	0x3d9f51f5	0.07779304
127	0x3e8664f3	0.26248893
128	0x3efda897	0.49542686
129	0x3f364995	0.7120603
130	0x3f4d6d21	0.8024464
131	0xbe85ab91	-0.26107457
132	0x3f8e6d6a	1.112714
133	0xbe8df88d	-0.27728692
134	0x3e81445f	0.25247476
135	0xbf55bf70	-0.83495235
136	0x3da946fc	0.08265492
137	0xbe9a5ae9	-0.30147484
138	0xbf4fea8b	-0.8121726
139	0xbf09e41c	-0.5386369
140	0x3f155efd	0.58348066
141	0xbe49dd3f	-0.19713305
142	0xbe3b212b	-0.18274371
143	0xbedc1505	-0.42984787
144	0xbc80c05e	-0.015716728
145	0x3e3fb46f	0.18721174
146	0xbec96989	-0.3933833
147	0x3e16759c	0.14693302
148	0x3e226087	0.15857135
149	0xbf46ab44	-0.7760508
150	0x3f6c7568	0.9236665
151	0x3ecb7d7c	0.39744174
152	0xbd4bf2a3	-0.049791943
153	0x3f13c429	0.5772119
154	0x3df18edb	0.11794826
155	0x3e8bc727	0.2730038
156	0x3f3a582c	0.7279079
157	0xbe91f618	-0.28508067
158	0xbd8f5b0f	-0.0699979
159	0x3ec17846	0.37787074
160	0x3eb6cfad	0.3570532
161	0x3f8112d9	1.0083877
162	0x3ee849a4	0.45368683
163	0xbebf64e0	-0.3738165
164	0x3e3fca3d	0.18729492
165	0xbea762cc	-0.32692564
166	0xbe7122ec	-0.23548478
167	0xbe691dcd	-0.22765274
168	0xbe4f7f1f	-0.20263337
169	0x3c23359d	0.009961513
170	0xbf901cfb	-1.1258844
171	0xbf80be7d	-1.0058132
172	0x3e8b363b	0.27189812
173	0xbfd327d3	-1.6496528
174	0xbee94281	-0.4555855
175	0xbeb88122	-0.3603602
176	0x3f224f98	0.634027
177	0xbf02c624	-0.5108359
178	0x3c8b623e	0.017014619
179	0xbe066ad8	-0.13126695
180	0x3f9ba954	1.216105
181	0xbf5ecf5a	-0.87035143
182	0x3ea07c1a	0.31344682
183	0x3e8b5d0a	0.2721942
184	0x3f620d40	0.8830147
185	0xbe62c239	-0.22144403
186	0xbe5ef25a	-0.21772137
187	0x3e02a25d	0.12757249
188	0x3e3c9614	0.18416625
189	0xbe7d75b6	-0.24751934
190	0x3d817d52	0.06322731
191	0x3e1d0d91	0.15337206
192	0xbf473567	-0.7781586
193	0xbeced4e2	-0.40396792
194	0x3f0abccb	0.54194325
195	0x3ff95aa5	1.9480788
196	0x3da0da81	0.07854176
197	0x3e7ea32f	0.24866937
198	0x3e09ff8d	0.13476391
199	0xbe24e956	-0.16104636
200	0xbf5dab6a	-0.8658968
201	0xbeea233f	-0.45730016
202	0xbd6f7e1a	-0.05846987
203	0xbec4f687	-0.38469335
204	0xbf1b7d13	-0.60737723
205	0xbdacbdc6	-0.08434634
206	0xbe163e33	-0.14672165
207	0x3ecb3001	0.39685062
208	0xbe21b6c4	-0.15792376
209	0x3f4a27c5	0.78966933
210	0x3f3c9f18	0.7368026
211	0xbf9ed48c	-1.2408614
212	0x3e3fd342	0.18732932
213	0xbdccb704	-0.09995845
214	0xbea7b758	-0.32757068
215	0xbf030a13	-0.5118725
216	0x3e770113	0.24121504
217	0x3f0b90a6	0.5451759
218	0x3de55ac9	0.111989565
219	0x3f8c5c88	1.0965738
220	0xbed6c3aa	-0.41946155
221	0xbe9c8f89	-0.3057826
222	0x3ebbebd7	0.3670337
223	0xbfcd2abd	-1.6028668
224	0x3f02573e	0.5091437
225	0x3e4419d7	0.19150482
226	0x3e884de5	0.2662193
227	0xbf011814	-0.50427365
228	0x3cdd906d	0.027046407
229	0x3e518329	0.2046019
230	0xbe31def3	-0.17370205
231	0xbe39dfcc	-0.18151778
232	0x3d136614	0.03598602
233	0xbddd5b9f	-0.10808491
234	0xbe4befd6	-0.19915709
235	0xbd922c38	-0.0713734
236	0x3db6ce19	0.08926029
237	0xbe95c994	-0.29255354
238	0x3f04d6e7	0.51890415
239	0x3e2957cb	0.16537397
240	0xbf538c93	-0.82636374
241	0x3e7ad677	0.24495874
242	0x3d18e1e8	0.037324816
243	0x3f7996b5	0.97495586
244	0x3eab84b6	0.33499688
245	0x3e6e0329	0.23243393
246	0x3f79c558	0.9756675
247	0x3e77c6ea	0.24196973
248	0xbf2fe432	-0.68707573
249	0xbec16221	-0.3777018
250	0x3e7a0aa2	0.24418119
251	0xbe305f78	-0.17223918
252	0x3eb55437	0.35415813
253	0xbe4b80cb	-0.1987335
254	0xbe80a08a	-0.25122482
255	0xbfdbba57	-1.7166241

model.encoder.layers.0.linear2.bias f4 [16]
0	0xbe89986f	-0.2687411
1	0xbe6a8ea1	-0.22905971
2	0x3e3deb6d	0.18546839
3	0xbe46a5f3	-0.19399242
4	0x3d6542a6	0.055971764
5	0x3d16d6ea	0.03682605
6	0x3ed9571f	0.4244928
7	0x3d5ed234	0.054399684
8	0x3dc8c923	0.09803989
9	0xbea89c4b	-0.32931742
10	0xbe400195	-0.18750603
11	0x3e84ba0f	0.259232
12	0xbdeb49fb	-0.1148872
13	0x3e6b67bf	0.22988795
14	0xbd7b7f5f	-0.061400767
15	0x3e7ae8fb	0.24502937

model.encoder.layers.0.norm1.weight f4 [16]
0	0x3f0e6028	0.5561547
1	0x3f1e556c	0.61849093
2	0x3f00284a	0.50061476
3	0x3ee72d8e	0.45151943
4	0x3f4031e6	0.7507614
5	0x3f172daf	0.5905408
6	0x3f02bc8b	0.51068944
7	0x3f111298	0.56668997
8	0x3efb7003	0.49108896
9	0x3f122393	0.5708553
10	0x3f10cbac	0.5656078
11	0x3f1b447c	0.60651374
12	0x3f0bf01a	0.5466324
13	0x3f059328	0.5217767
14	0x3f2afc49	0.66791207
15	0x3f33f89a	0.7030121

model.encoder.layers.0.norm1.bias f4 [16]
0	0xbbf69d2c	-0.0075260606
1	0x3db67ce5	0.089105405
2	0xbdf91f38	-0.12164158
3	0x3d9f8063	0.0778816
4	0xbbca1684	-0.006167235
5	0x3d92e2d1	0.07172168
6	0xbdb4be4a	-0.08825357
7	0x3dafbc64	0.085808545
8	0x3d5b69d3	0.05356772
9	0x3d59b3b4	0.053149894
10	0x3d5ff15b	0.054673534
11	0xbdb91945	-0.09038023
12	0x3c523047	0.012828893
13	0xbdeb539e	-0.11490558
14	0x3c76e1bb	0.015068467
15	0xbcc798d0	-0.024364859

model.encoder.layers.0.norm2.weight f4 [16]
0	0x3f0a1615	0.53939945
1	0x3f1acb8f	0.60466856
2	0x3f0a4a29	0.5401941
3	0x3f0f4b6d	0.55974466
4	0x3f452c77	0.7702097
5	0x3f1b3962	0.60634434
6	0x3ecdf6c6	0.40227336
7	0x3f36d1d4	0.7141392
8	0x3f109047	0.5647015
9	0x3f3259ce	0.6966828
10	0x3f066d50	0.5251055
11	0x3f0d4d97	0.5519652
12	0x3f067ee6	0.5253738
13	0x3f2603e2	0.64849675
14	0x3f59d484	0.850899
15	0x3efde203	0.49586496

model.encoder.layers.0.norm2.bias f4 [16]
0	0xbe864a3e	-0.26228517
1	0xbeefba29	-0.46821716
2	0x3f29a289	0.66263634
3	0x3d39960c	0.04530911
4	0xbd9bf58b	-0.07615193
5	0xbebcef82	-0.3690148
6	0x3ebbe741	0.3669987
7	0xbe92eb8a	-0.28695327
8	0xbe7f32a6	-0.24921665
9	0x3e264318	0.16236532
10	0xbefa4638	-0.48881698
11	0x3f075125	0.5285819
12	0x3e8a6718	0.2703178
13	0xbca68009	-0.020324724
14	0xbe5ee56e	-0.21767208
15	0x3e9b939a	0.3038605

model.encoder.layers.1.self_attn.in_proj_weight f4 [48, 16]
0	0x3e091900	0.13388443
1	0xbf24751e	-0.64241207
2	0x3ec8f524	0.39249527
3	0xbec9fd8d	-0.39451256
4	0xbda74c28	-0.081688225
5	0x3e3a91dc	0.18219703
6	0x3d4b9086	0.049698375
7	0xbec8ce09	-0.39219692
8	0x3f181243	0.59402865
9	0x3eb75323	0.35805616
10	0x3dffb001	0.12484742
11	0xbfba9cf6	-1.4579151
12	0x3d846043	0.06463673
13	0x3f674f00	0.9035492
14	0x3e90bbfd	0.28268424
15	0x3ec435ca	0.38322288
16	0x3f31a178	0.69387007
17	0xbe9f138a	-0.31069595
18	0xbf30e77d	-0.69103223
19	0x3ec54287	0.3852732
20	0xbefe3578	-0.49650168
21	0x3e22e199	0.15906371
22	0xbe8faecd	-0.2806305
23	0xbe07cf77	-0.13262735
24	0x3eb2020a	0.3476718
25	0x3f06cfd6	0.5266088
26	0x3d95e6ec	0.073194355
27	0x3e9bfa26	0.30464286
28	0x3f01ef51	0.5075579
29	0xbd983ab4	-0.07433072
30	0xbf11893d	-0.56850034
31	0x3e92f5b7	0.2870309
32	0xbdfd73dd	-0.12375615
33	0xbebb7e87	-0.3661997
34	0x3eb850ea	0.35999233
35	0x3e658618	0.22414434
36	0x3e0cdefe	0.1375694
37	0x3d6e943e	0.058246844
38	0x3bf40acc	0.007447576
39	0xbd8fd608	-0.07023245
40	0x3e62dbd6	0.22154173
41	0x3eec5dac	0.46165216
42	0xbe53760b	-0.20650499
43	0x3ec6d3af	0.38833377
44	0xbec14623	-0.37748823
45	0xbea4b825	-0.3217174
46	0xbd2c48e1	-0.04206169
47	0xbc30f317	-0.010800145
48	0xbe5e9aa1	-0.21738674
49	0xbf1707b1	-0.5899611
50	0x3cf5e599	0.030016707
51	0xbc9458cb	-0.018108746
52	0x3e8b5ddf	0.27220055
53	0x3f047838	0.5174594
54	0xbd6b56b3	-0.05745573
55	0x3f22a2cb	0.6352965
56	0x3d0a52fa	0.03377054
57	0x3de738a3	0.112900995
58	0xbebecbb7	-0.37264797
59	0x3e85d50c	0.26139104
60	0x3d797958	0.060906738
61	0xbe502f0f	-0.20330451
62	0xbe46dd5a	-0.19420376
63	0xbdf4f496	-0.119607136
64	0xbe506539	-0.20351113
65	0xbf042998	-0.5162597
66	0x3d2b22df	0.041781303
67	0xbf4fbcb4	-0.81147313
68	0x3e2292ac	0.15876263
69	0x3e462ca7	0.19352971
70	0x3f2dc350	0.6787615
71	0x3ec15052	0.37756592
72	0xbe744990	-0.23856187
73	0x3f2e4e6c	0.6808841
74	0xbe67da21	-0.22641803
75	0x3d4fc2fa	0.050723054
76	0xbe1a1e19	-0.15050544
77	0x3e60ebce	0.21964952
78	0xbe826a37	-0.2547166
79	0x3efe6e17	0.49693367
80	0xbecdf30d	-0.40224496
81	0x3f18f8d8	0.59754705
82	0xbf03a0de	-0.5141734
83	0xbd8ae2c4	-0.06781533
84	0x3eaed0e7	0.34143755
85	0xbea379af	-0.31928775
86	0x3f1d4f8d	0.6144951
87	0x3e8bccff	0.27304837
88	0xbe377779	-0.17916669
89	0x3e4ab06c	0.19793862
90	0xbd62330b	-0.05522446
91	0xbdb20114	-0.08691612
92	0xbf40c5b8	-0.75301695
93	0x3f4e0b3e	0.80485904
94	0xbe958aef	-0.2920756
95	0xbeff7a34	-0.4989792
96	0x3e69e110	0.22839761
97	0xbeb23dbb	-0.34812722
98	0xbf3db71c	-0.7410753
99	0xbed92686	-0.42412204
100	0x3f2b049a	0.66803896
101	0x3f247404	0.64239526
102	0xbf3b72d2	-0.73222077
103	0x3e97de0c	0.29661596
104	0xbc89d9e3	-0.01682753
105	0x3e8e8d17	0.27842018
106	0x3e895a0c	0.26826513
107	0x3ea21d4d	0.3166298
108	0xbeba3f75	-0.3637654
109	0x3e34de3a	0.17662898
110	0x3c5ed605	0.013600831
111	0x3e917075	0.2840611
112	0x3e1cf957	0.1532949
113	0x3cf244f7	0.0295739
114	0xbe4ff848	-0.20309556
115	0xbf166704	-0.5875094
116	0x3d70853a	0.058720805
117	0x3ef0515e	0.46937078
118	0xbe07627f	-0.13221167
119	0x3f89b4dd	1.075832
120	0xbf39ff5a	-0.7265526
121	0xbd82c429	-0.06385071
122	0x3dc9c31a	0.09851666
123	0x3e8a1524	0.26969254
124	0x3e6011bc	0.21881765
125	0x3e2e625d	0.1702971
126	0x3ebed433	0.3727127
127	0xbedd5dab	-0.43235525
128	0xbefb9c0a	-0.49142486
129	0x3f107925	0.5643485
130	0x3c4f95aa	0.01266996
131	0x3f535f8a	0.82567656
132	0xbeaceda8	-0.33775067
133	0xbe6f0435	-0.23341449
134	0xbf3b392a	-0.731341
135	0x3d2e872b	0.042609375
136	0x3e1676a1	0.14693691
137	0xbd3d4ca5	-0.046215672
138	0x3d55b4a9	0.052174244
139	0xbd872e96	-0.066006824
140	0x3f108f60	0.5646877
141	0xbdada609	-0.08478934
142	0x3e01a66d	0.12661143
143	0xbe64bce8	-0.22337687
144	0x3e8877fd	0.26654044
145	0x3e91e6d6	0.28496426
146	0xbe6df044	-0.23236185
147	0xbe421d13	-0.18956403
148	0x3e75d962	0.24008706
149	0x3ef85436	0.48501748
150	0x3ebb1d9d	0.3654603
151	0xbe31c54b	-0.17360418
152	0x3e1a5518	0.15071523
153	0x3ca56c9e	0.020193394
154	0xbdd2c78d	-0.102919675
155	0x3e69a730	0.22817683
156	0xbf31482a	-0.6925074
157	0xbf811d49	-1.0087062
158	0x3e631833	0.221772
159	0xbdeac74b	-0.11463793
160	0xbe228450	-0.15870786
161	0xbe11d755	-0.14242299
162	0x3d74bb20	0.05974877
163	0x3ecc2fa1	0.39880088
164	0x3e34c58c	0.17653483
165	0xbda17971	-0.07884491
166	0xbf1e7f9b	-0.6191346
167	0x3e2225e3	0.15834765
168	0x3e4c12f0	0.19929099
169	0xbd99f7ff	-0.075180046
170	0xbdb7fee7	-0.08984166
171	0x3c1fe28f	0.009758606
172	0x3e602d73	0.21892338
173	0x3eccdc3f	0.40011784
174	0xbcee0d0e	-0.02905896
175	0x3e501998	0.20322263
176	0x3efbe1a8	0.491956
177	0x3f07b561	0.5301114
178	0xbe8301bd	-0.25587264
179	0x3eb462a7	0.35231516
180	0x3d99a1b1	0.07501543
181	0x3e1fa209	0.15589155
182	0xbf160b2b	-0.5861079
183	0x3ccc5361	0.024942102
184	0xbc18b826	-0.009321248
185	0x3d51825c	0.05114971
186	0x3eba404d	0.36377183
187	0x3eaf0941	0.34186748
188	0x3cb3ee47	0.021964205
189	0xbe0604be	-0.13087747
190	0xbea9efb6	-0.33190697
191	0xbef60900	-0.4805374
192	0x3f4e0221	0.80472
193	0xbe0e07a2	-0.13870099
194	0xbb9d3898	-0.0047980063
195	0xbdbfbe52	-0.093624726
196	0xbdd2aa24	-0.10286358
197	0x3e2ee3ef	0.17079137
198	0xbe63051f	-0.22169922
199	0xbc93fd13	-0.018065011
200	0xbf12d676	-0.5735849
201	0xbef9ab4f	-0.4876351
202	0x3e957ce5	0.2919685
203	0x3f054b9a	0.52068484
204	0x3f0b2a3b	0.54361314
205	0xbec1a52e	-0.37821335
206	0x3f116934	0.5680115
207	0x3eef1320	0.4669428
208	0xbe7fa9de	-0.24967143
209	0xbea34ded	-0.3189539
210	0xbd3ebdcd	-0.046567727
211	0xbf291efd	-0.6606291
212	0x3eb7a379	0.35866907
213	0x3e5489d4	0.20755702
214	0x3ee5b38b	0.44863543
215	0xbd851fed	-0.0650023
216	0x3bba1255	0.005678455
217	0xbedc8f3b	-0.43078026
218	0x3e43e103	0.19128804
219	0xbd817b72	-0.063223734
220	0xb967b648	-0.00022097782
221	0x3ca0508e	0.019569661
222	0xbd8728c6	-0.06599574
223	0x3d3cd7b8	0.046104163
224	0x3dd8de36	0.105892584
225	0x3d95c0a7	0.07312136
226	0x3dd2735d	0.1027591
227	0xbddc2b4b	-0.10750445
228	0x3f0ce1a9	0.5503183
229	0x3dd43652	0.10361923
230	0x3ec7745c	0.38955963
231	0x3f0f3fc5	0.5595668
232	0x3e3fc84c	0.18728751
233	0xbdb7295b	-0.08943435
234	0xbd0b6a71	-0.034037057
235	0x3e1e2715	0.15444596
236	0xbd2c6296	-0.042086206
237	0x3dfd026e	0.12353979
238	0xbf0f717d	-0.56032544
239	0xbeb6963a	-0.3566149
240	0x3e02eb57	0.12785088
241	0xbda99cd2	-0.08281864
242	0x3df4073d	0.11915443
243	0x3e90abc2	0.2825604
244	0xbe08d683	-0.1336308
245	0xbefae99d	-0.49006358
246	0xbedbc1e3	-0.4292136
247	0xbdd6483c	-0.10462996
248	0x3f1f09b9	0.6212421
249	0xbe278d57	-0.1636251
250	0xbefacbb1	-0.4898353
251	0xbe887fa3	-0.2665988
252	0x3f506c12	0.814149
253	0xbee25188	-0.44202828
254	0x3ef42319	0.47683027
255	0x3f0d8ec0	0.55295944

model.encoder.layers.1.self_attn.in_proj_bias f4 [48]
0	0x3e127b57	0.14304863
1	0xbe8fa5af	-0.28056094
2	0x3f78d7ed	0.97204477
3	0xbeb48a88	-0.3526194
4	0x3f064486	0.5244831
5	0x3d8f124b	0.06985911
6	0xbdf8ae13	-0.12142577
7	0xbea1d628	-0.316087
8	0xbf3c5fcd	-0.7358368
9	0xbf0eca9d	-0.55777913
10	0x3e47838f	0.1948378
11	0xbf0ae673	-0.5425789
12	0xbcd34c2e	-0.025793161
13	0xbeee08bc	-0.4649104
14	0xbd070f00	-0.03297329
15	0xbdd38744	-0.10328534
16	0x3b9e40a0	0.0048294812
17	0xba9f678b	-0.0012161596
18	0x3bd66a58	0.006543439
19	0x3b02e98c	0.001997563
20	0x3c50009e	0.01269546
21	0x3b712378	0.0036794823
22	0xba8ce406	-0.0010749109
23	0xbbb194b0	-0.0054193363
24	0x3b01c362	0.0019800295
25	0xbbb95031	-0.0056553115
26	0x3a4dc697	0.00078497216
27	0x3ae397d1	0.001736397
28	0xbbae2dbb	-0.00531551
29	0x3a7382d8	0.00092892116
30	0x3be43f12	0.0069655264
31	0xba07d3aa	-0.0005181382
32	0xbd0f7609	-0.035024676
33	0xbdf1d28a	-0.11807735
34	0xbe4aa5c6	-0.197898
35	0x3d84c3fa	0.06482692
36	0x3e417d89	0.18895544
37	0xbce0d2cb	-0.027444264
38	0x3eb0d5ba	0.3453806
39	0x3e395d66	0.18102035
40	0x3e53ffad	0.20703001
41	0xbdb5156a	-0.08841975
42	0x3dbba449	0.09162194
43	0xbbe4d404	-0.006983282
44	0x3dbccbcd	0.092185594
45	0x3e218394	0.1577285
46	0x3e05c7ea	0.13064542
47	0x3dc00d35	0.09377519

model.encoder.layers.1.self_attn.out_proj.weight f4 [16, 16]
0	0x3ba5a0e8	0.005054582
1	0x3d1879db	0.037225585
2	0xbc47cebf	-0.012195288
3	0x3e259a5a	0.16172162
4	0xbf7b2e7e	-0.98117816
5	0x3e915df2	0.28391987
6	0xbf857756	-1.0427043
7	0x3dcf750a	0.10129745
8	0xbd9e8f5e	-0.07742189
9	0x3ef949cd	0.48689118
10	0xbd6cca11	-0.057809893
11	0xbf063229	-0.5242029
12	0x3f5e8477	0.86920875
13	0x3e0f08fa	0.13968268
14	0x3db2456a	0.08704646
15	0xbdc303fc	-0.09522244
16	0xbe0377d8	-0.12838686
17	0xbe328b40	-0.17435932
18	0x3e34140c	0.17585772
19	0x3e8f3423	0.27969465
20	0x3da226ff	0.07917594
21	0x3f30ce09	0.69064385
22	0x3f5d622f	0.8647794
23	0x3d519c5a	0.0511745
24	0xbe95e4ce	-0.29276127
25	0xbf3d8755	-0.74034625
26	0x3e8dfc89	0.27731732
27	0xbdef3368	-0.11679727
28	0xbee38768	-0.44439244
29	0xbdcdb97e	-0.100451455
30	0xbe0deeae	-0.1386058
31	0xbf02ffe7	-0.51171726
32	0xbf196895	-0.59925205
33	0xbf446e3c	-0.76730704
34	0xbdfb3bae	-0.12267242
35	0x3e38f545	0.18062313
36	0x3da7232b	0.08161005
37	0xbee65cd6	-0.44992703
38	0x3f5f2340	0.8716316
39	0x3f879fae	1.0595605
40	0xbea75380	-0.32680893
41	0x3f0cffa9	0.55077606
42	0xbeef233c	-0.4670657
43	0x3f4eb981	0.80751806
44	0xbedb7cd2	-0.42868668
45	0x3e186f8c	0.14886302
46	0xbea66079	-0.32495478
47	0x3f56847f	0.83795923
48	0xbe6303da	-0.22169438
49	0xbeb5f3e4	-0.35537636
50	0xbf17e4c5	-0.5933345
51	0xbef53942	-0.47895247
52	0xbf61fdae	-0.8827771
53	0x3f673333	0.903125
54	0xbf2292da	-0.6350533
55	0xbe6fb2df	-0.23408078
56	0x3c3b79e0	0.0114426315
57	0xbf4d075d	-0.8008936
58	0x3f6af063	0.9177305
59	0x3eb8f396	0.3612334
60	0x3ebec309	0.37258175
61	0x3f441860	0.76599693
62	0xbc08359c	-0.008313563
63	0x3eb2f588	0.3495295
64	0x3ec47efc	0.3837813
65	0x3f0dc902	0.5538484
66	0xbf21f29a	-0.63260806
67	0x3d915d60	0.07097888
68	0x3e34bac8	0.17649376
69	0x3e9867c9	0.29766682
70	0x3e0f0872	0.13968065
71	0x3f4f1487	0.808907
72	0x3f8b1cd3	1.0868171
73	0x3edfe2e1	0.43727782
74	0xbf10c968	-0.5655732
75	0xbed18d4e	-0.4092812
76	0x3dc6877b	0.096938096
77	0xbf7e26ff	-0.99278253
78	0x3f21fa3d	0.6327246
79	0xbe1962a2	-0.14979032
80	0x3c61c750	0.01378043
81	0x3d920219	0.07129306
82	0x3ecf820c	0.40528905
83	0xbda84c9f	-0.08217739
84	0x3f0f39ba	0.5594746
85	0xbf2d606e	-0.67725265
86	0xbefa369d	-0.48869792
87	0xbec0f04f	-0.3768334
88	0xbe697cec	-0.2280156
89	0x3d39094f	0.045174893
90	0xbe6e6890	-0.23282075
91	0xbf6412c2	-0.8909112
92	0x3f5bfcb5	0.85932475
93	0x3ee491d8	0.4464252
94	0x3e1b6deb	0.15178649
95	0xbe42515f	-0.18976353
96	0x3dbdd783	0.09269621
97	0xbeb8b02e	-0.36071914
98	0xbe8722a6	-0.26393622
99	0x3e9511f3	0.29115257
100	0xbd892bd0	-0.0669781
101	0xbed0bd3f	-0.40769383
102	0x3f9e509f	1.2368354
103	0xbf2d4944	-0.6768992
104	0x3f02a675	0.51035243
105	0x3e82ee16	0.2557227
106	0xbe6d6015	-0.23181184
107	0x3cfb07a5	0.030643294
108	0x3eda32c1	0.42616847
109	0x3ecca1ca	0.39967185
110	0x3ec7aa77	0.38997242
111	0xbf6f314e	-0.9343461
112	0xbe175471	-0.14778306
113	0xbeb023ad	-0.34402218
114	0x3f390cee	0.72285354
115	0xbf926411	-1.1436788
116	0x3f20fb2e	0.6288327
117	0x3dff84eb	0.12476524
118	0xbe707cfc	-0.23485178
119	0xbe6a8701	-0.22903062
120	0x3fbf64fc	1.4952693
121	0xbe7a5350	-0.24445844
122	0x3e8d0b28	0.27547574
123	0x3d1f3d99	0.038877103
124	0xbbf92d43	-0.0076042726
125	0xbee146c7	-0.4399931
126	0xbf1d418f	-0.6142816
127	0xbeb7691d	-0.35822383
128	0x3e5284c5	0.2055846
129	0x3e8697ef	0.2628779
130	0x3bfe0190	0.007751651
131	0x3eb57758	0.35442615
132	0xbf967c7d	-1.1756741
133	0xbf68cdbf	-0.90938944
134	0xbea59d59	-0.3234661
135	0xbf10cfca	-0.5656706
136	0x3f7d23dc	0.9888284
137	0x3cefa7b7	0.029254777
138	0x3efb6c04	0.49105847
139	0x3f27e320	0.6558094
140	0x3ecea89c	0.40363014
141	0xbe02ce26	-0.12773952
142	0x3f93d724	1.1550031
143	0xbf7d212c	-0.9887874
144	0xbe25d0c8	-0.16192925
145	0x3ed40b77	0.41414997
146	0x3f6cf605	0.92562896
147	0xbe208736	-0.15676579
148	0x3e27d257	0.16388832
149	0xbee111ec	-0.43958986
150	0x3da4c820	0.08045983
151	0x3ea1d43e	0.3160724
152	0xbeca99af	-0.39570376
153	0xbe06e33a	-0.13172618
154	0x3d3dbdea	0.046323694
155	0x3f25668b	0.64609593
156	0xbf0b8c61	-0.54511076
157	0x3d6745e3	0.056463134
158	0x3e26ea0a	0.16300216
159	0x3e831225	0.2559978
160	0xbf8491b6	-1.0356967
161	0xbd4e8efb	-0.050429326
162	0xbe092ffd	-0.13397212
163	0xbe699205	-0.22809608
164	0xbf33b0b5	-0.7019151
165	0x3f874806	1.0568855
166	0xbe5fbb11	-0.21848704
167	0xbf469177	-0.7756571
168	0x3ec81f22	0.39086252
169	0x3f3506a8	0.7071328
170	0xbf147da9	-0.5800424
171	0xbee0ef30	-0.43932486
172	0x3f1cd387	0.61260265
173	0xbe476d7e	-0.19475362
174	0xbeb4d48d	-0.35318413
175	0xbea83bb2	-0.32858044
176	0xbd5225b9	-0.051305506
177	0xbe949d2d	-0.29026166
178	0xbe0281af	-0.12744783
179	0x3e88b631	0.267015
180	0x3f077fd2	0.52929413
181	0xbc742eb9	-0.014903718
182	0x3f34466c	0.70419955
183	0xba849a46	-0.0010116778
184	0xbf8bc635	-1.0919863
185	0x3db68109	0.0891133
186	0xbf94bdc4	-1.1620412
187	0xbf622830	-0.8834257
188	0x3dafc840	0.085831165
189	0xbd46e4f3	-0.048558187
190	0xbe98c07b	-0.2983435
191	0x3d3a8516	0.045537077
192	0xbef29803	-0.473816
193	0x3e6eb7cc	0.233123
194	0x3e16b415	0.14717133
195	0x3f9a65fd	1.2062374
196	0x3e6329e6	0.22183952
197	0xbe9090da	-0.28235513
198	0xbf7cf097	-0.9880461
199	0xbdca86c1	-0.098889835
200	0xbf1b4587	-0.60652965
201	0xbf1d7720	-0.61509895
202	0xbde648dc	-0.112443656
203	0x3f22aeea	0.6354815
204	0xbf593846	-0.8485149
205	0xbf2eeaeb	-0.68327206
206	0x3d6efab6	0.058344565
207	0xbc4b198c	-0.012396228
208	0x3da95681	0.082684524
209	0x3f305efa	0.6889492
210	0xbe045443	-0.12922768
211	0xbe98f2aa	-0.29872638
212	0xbe105a97	-0.14097057
213	0xbf36d23e	-0.71414554
214	0xbd899d46	-0.06719451
215	0x3f3dabf7	0.7409052
216	0x3f1b02ac	0.6055095
217	0xbc44ef9b	-0.012020017
218	0x3f17ed51	0.5934649
219	0x3f496e72	0.7868415
220	0xbe2f57d6	-0.1712335
221	0x3f4f2dd5	0.8092931
222	0x3f0eaa31	0.5572844
223	0x3f9c90f1	1.2231733
224	0xbda43fcc	-0.08019981
225	0xbf24a0e4	-0.64308
226	0x3db486b3	0.08814754
227	0x3c8f69f8	0.017506585
228	0x3df0ac27	0.117515855
229	0x3e266fc8	0.16253579
230	0x3eacbd7e	0.3373832
231	0x3e420f47	0.1895114
232	0x3e2ed8ee	0.1707494
233	0xbf39a6d2	-0.7252017
234	0xbe1fe525	-0.15614755
235	0xbed3bb63	-0.41353902
236	0xbf05c796	-0.5225767
237	0xbe800141	-0.25000957
238	0xbf87dbff	-1.0614012
239	0x3f57f546	0.8435863
240	0x3f2f4460	0.68463707
241	0x3f42760f	0.75961393
242	0x3f15f219	0.58572537
243	0x3dfc6be7	0.12325268
244	0xbe4a02ba	-0.19727603
245	0x3eb7ebe1	0.3592215
246	0x3e36353c	0.17793745
247	0xbf0fd930	-0.56190777
248	0xbe3b6237	-0.18299185
249	0x3c89e99e	0.01683503
250	0xbc064f26	-0.008197581
251	0x3e9a9a76	0.3019597
252	0x3cfbf5c4	0.030756839
253	0x3da30d98	0.07961577
254	0x3e7e021d	0.24805494
255	0x3f085b88	0.53264666

model.encoder.layers.1.self_attn.out_proj.bias f4 [16]
0	0xbe321bc0	-0.17393398
1	0xbeb8e745	-0.36113945
2	0x3e2b7f53	0.16747789
3	0xbef7f5c3	-0.4842969
4	0x3db6fd73	0.0893506
5	0x3dd33158	0.10312146
6	0x3f1f3e98	0.62204885
7	0x3dd025cb	0.101634584
8	0xbed2de96	-0.41185445
9	0xbe1c1d61	-0.15245582
10	0xbe41fdb0	-0.1894443
11	0x3df19502	0.11795999
12	0xbe7855ce	-0.24251482
13	0x3eb24c4c	0.34823835
14	0xbdf672bc	-0.120336026
15	0x3ddf37e9	0.10899336
