data/model/seq2seq.addition.bs128.ed8.hs64.ep1.transformer.pth (torch, 27699 bytes, 38 tensors)

model.encoder.layers.0.self_attn.in_proj_weight f4 [24, 8]
000000 f1 9a 8d 3e 9c 7d a1 3e c1 cb 8e 3d 28 dd d6 be
       0.27657273 0.31541145 0.06972457 -0.41965604
000010 c6 63 a8 3e e4 6d 47 3e be fd 45 be 47 af bb bb
       0.3288862 0.19475514 -0.19335076 -0.005727682
000020 a2 64 84 be dc d8 f3 3e af 4a d4 bd a7 e9 f8 3e
       -0.25858027 0.47626388 -0.10365807 0.48615763
000030 e5 53 c4 be 89 35 5e 3e 5e 74 07 bd 38 a0 d3 3e
       -0.38345256 0.2170011 -0.03306996 0.41333175
000040 81 83 21 3c a0 cd ca 3e 92 11 82 be c0 c2 af 3e
       0.009858013 0.39610004 -0.2540403 0.3432827
000050 0b eb 65 be 07 10 7c be db cb b7 be ce 4b 36 be
       -0.22452943 -0.24615489 -0.35897717 -0.17802355
000060 90 7f cd 3d a5 b4 d1 be 64 a8 41 be 44 74 8a bd
       0.10034096 -0.40958133 -0.18911892 -0.06760457
000070 e3 f1 62 3c c9 a4 eb bc 5d db 08 3e 66 1c 8e bd
       0.013851616 -0.0287651 0.1336493 -0.0693901
000080 a7 84 c0 3d 89 d5 0e be 66 3d fc bd b3 23 6d 3e
       0.094003014 -0.13948645 -0.12316398 0.2315815
000090 47 c0 af 3d cd ee 73 be d3 57 dc be f0 5c b1 be
       0.08581596 -0.23821564 -0.43035755 -0.34641218
0000a0 ae 4b 4f 3e e5 76 ee 3e f9 0f b4 bd 2b f4 16 3e
       0.20243713 0.46575084 -0.08792109 0.1474158
0000b0 65 c1 85 be 9e fe d0 be 69 15 7c be 5a ba b1 be
       -0.2612411 -0.40819257 -0.24617542 -0.34712487
0000c0 25 6e 0c 3d d3 8b 0e bf 98 e0 42 be c1 a7 b0 3e
       0.03428473 -0.55682105 -0.19030988 0.34502986
0000d0 73 26 4b be 2e 50 a4 3e e0 6f 41 be 0e 0a 03 bf
       -0.19838886 0.32092422 -0.18890333 -0.5118722
0000e0 54 b7 ff bc 3e ad 7b be b1 5b c8 bd e4 b3 53 be
       -0.031215347 -0.24577805 -0.09783114 -0.20674092
0000f0 49 0d 59 3e 75 0e 0c 3c 34 57 b7 3d ce ca 97 bd
       0.21196474 0.008548369 0.089521796 -0.07411729
000100 3e 69 11 3e bd 77 50 3e 50 a0 0d be 60 33 d0 be
       0.14200303 0.20358177 -0.13830686 -0.40664196
000110 cf 84 b7 be 9a 7e b1 3e d2 14 0c be 2e d8 91 bd
       -0.35843512 0.34666902 -0.13679817 -0.07121311
000120 9e e1 85 3c 32 43 8a 3e b8 e5 99 3e b9 a9 9d 3e
       0.016342934 0.2700439 0.30058074 0.3079355
000130 c7 a5 61 be 89 67 02 be 8f d4 bb 3e 1f d0 02 bf
       -0.22035895 -0.12734808 0.36685607 -0.5109882
000140 38 4f b6 3e fd 85 0c 3e ad 3c bf be cc 01 80 be
       0.35607314 0.13722987 -0.3735098 -0.2500137
000150 09 cc 57 3e c4 74 8c 3e 07 2e 9d 3e 4c 64 c1 3d
       0.21073927 0.27432835 0.3069918 0.09442958
000160 32 ec 84 bc 70 04 93 be 01 ba cb bd 93 d4 bd 3e
       -0.016225908 -0.28714323 -0.09947587 0.37076244
000170 88 13 54 3e 7b 7a a9 be e0 3e db bd 54 21 eb 3a
       0.20710576 -0.33101258 -0.10705352 0.001793901
000180 ed e4 59 be f5 5f 34 be 00 9e 88 be 46 b6 3a be
       -0.21278735 -0.1761473 -0.26683044 -0.18233594
000190 0d 8e 7c 3e c1 1c 81 3e ca ec 96 3e ba b9 00 3e
       0.24663563 0.2521725 0.2947753 0.12570849
0001a0 2c ef a8 3e 80 d2 e5 be 76 b8 08 3f 38 12 4f bd
       0.32994974 -0.4488716 0.53406465 -0.050554484
0001b0 be e6 5a bc 73 cc b2 be 11 67 c0 bd 3d 23 f8 bd
       -0.013360677 -0.34921607 -0.09394658 -0.12116096
0001c0 f1 46 54 be b2 42 ee 3e f0 ca 9b 3c 75 92 cc bc
       -0.20730187 0.4653526 0.019017667 -0.02497218
0001d0 5e e4 0e 3d a6 26 b5 be 0f 1c 58 3d 3a 75 3d 3e
       0.034885757 -0.3538105 0.052761134 0.1850175
0001e0 aa 82 5f be c8 cf 89 be 48 2c 8d be a7 47 f6 be
       -0.21827188 -0.26916337 -0.27572846 -0.4810154
0001f0 30 94 27 be 70 2b a7 be 2f c7 e5 3d ad 38 c4 bc
       -0.16365123 -0.32650328 0.11219632 -0.023952806
000200 e9 64 b4 bb 04 fe 8a 3e 1e 42 e1 bc de 4c 0b bc
       -0.0055051935 0.27146924 -0.027497347 -0.008502213
000210 d9 54 3a be 13 5d ad 3d d7 ac 94 3e 74 e4 e0 3e
       -0.1819643 0.08465018 0.29038116 0.43924296
000220 a1 de a5 be 34 ae ba 3b 06 61 47 be b6 3b 48 3e
       -0.32396415 0.005697036 -0.19470605 0.19554028
000230 d8 4f a3 be 7c 49 40 3e 9c 87 a7 3e 60 29 e7 bd
       -0.31896853 0.18778032 0.3272065 -0.112871885
000240 9f 42 11 bf 0d 77 e4 bd 7f a3 86 3b a5 e3 ed 3e
       -0.5674228 -0.1115552 0.0041088457 0.46462741
000250 dd 46 aa 3d f5 01 1c be aa e0 ef be 05 98 9f 3e
       0.08314297 -0.15235122 -0.46851093 0.3117067
000260 03 20 31 be 55 8c f0 be 5d 10 f4 be 99 dd b9 3e
       -0.17297368 -0.46982065 -0.47668734 0.36301878
000270 32 ee e8 3a 2c 2f 9e be a0 db 2a 3e b1 db a8 3e
       0.0017771183 -0.30895364 0.16685343 0.3298011
000280 0a 57 bb 3e b0 f9 83 be 09 b7 a3 3d 34 22 4f 3d
       0.36589843 -0.25776434 0.079938956 0.050569728
000290 c5 c6 6b 3e 26 40 b9 3e 58 3d 99 bc 67 55 3c bd
       0.23025043 0.36181754 -0.018706009 -0.045979884
0002a0 8a dc 59 be e0 25 cf 3d a5 01 34 3e af e9 25 be
       -0.21275535 0.10114646 0.17578752 -0.16202424
0002b0 73 33 d2 3d 63 e6 af bd c0 2d b0 3e 4b af 9e be
       0.102637194 -0.08588865 0.34409904 -0.30993113
0002c0 66 da bf be 02 3a 8d bc 74 50 5d be c0 5e 7f bd
       -0.37471312 -0.017239574 -0.21612722 -0.06234622
0002d0 5a a4 5b be 7c b2 df 3c 2b ce 14 be b5 29 46 3e
       -0.21449414 0.027306788 -0.14531772 0.19351847
0002e0 5b 58 01 be 28 2b c6 3e 50 b2 71 be 42 8e ae be
       -0.12631361 0.387048 -0.23603177 -0.3409291
0002f0 47 6a f0 be e3 19 17 3d e7 24 c7 3e 86 fd 98 bd
       -0.46956083 0.036889922 0.38895342 -0.07470231

model.encoder.layers.0.self_attn.in_proj_bias f4 [24]
000000 91 dd d5 3b d8 8f a5 3d 3f 0e 44 3d 4d 39 47 bd
       0.006526657 0.08084077 0.04786515 -0.04863863
000010 69 1d 74 3d ca cc 0e be 28 32 02 be 72 b8 16 3c
       0.05959836 -0.13945308 -0.12714446 0.009199249
000020 26 2e 6a ba 60 5e 16 3a e1 5e d6 3a b6 b4 d2 38
       -0.0008933268 0.0005736109 0.001635518 0.0001004724
000030 9f 9d c6 b9 64 ea 1f ba 9d 96 12 bb 88 d1 5a 3a
       -0.0003788294 -0.00061002956 -0.0022367605 0.00083472626
000040 3c 9e 11 3d 03 77 e9 bc 1a b8 9b 3d 9b 75 96 3d
       0.035551295 -0.028499132 0.07603474 0.0734665
000050 01 87 49 bd 8c 5d d1 3b 32 a5 bc 3c 1d 2f 35 3d
       -0.049201015 0.0063893255 0.02302799 0.044234384

model.encoder.layers.0.self_attn.out_proj.weight f4 [8, 8]
000000 39 b0 48 3e 29 13 47 be 53 30 66 3d 72 81 6a be
       0.19598474 -0.19440903 0.05619843 -0.22900942
000010 e5 ed f4 3e ce 81 55 bd 23 14 37 bd 2c c5 d2 3e
       0.4783775 -0.052125745 -0.04469694 0.41166055
000020 be cc 02 3e 4e 87 2b 3d 98 ba 9e 3e 02 35 a6 bd
       0.12773415 0.041877083 0.31001735 -0.08115579
000030 db 12 cf be 53 ea 26 bf 84 44 19 3f d2 56 04 bf
       -0.40444073 -0.652013 0.5987017 -0.5169498
000040 f7 b1 15 3d a3 f5 b6 bd e7 78 fd 3e 6a f0 27 3f
       0.036546674 -0.0893357 0.49506304 0.6560122
000050 35 ae 15 bf f0 30 89 be 81 fc 88 3e a1 7f d7 3e
       -0.58468944 -0.2679515 0.26755145 0.4208956
000060 39 aa 52 3e 1f b7 34 be 36 05 26 3d 49 11 d2 bd
       0.20572747 -0.1764798 0.040532313 -0.10257203
000070 78 07 06 3f 9c f9 9b be 16 73 b0 3e 91 c8 23 3e
       0.52355146 -0.30463874 0.34462804 0.15994479
000080 9c 47 8a be 46 2f 41 be 0f 37 08 bf 90 6d b3 3e
       -0.2700776 -0.1886569 -0.5320901 0.35044527
000090 85 ec d9 3e ab ce 89 3e 9f 23 53 be 76 e6 35 3e
       0.42563263 0.26915488 -0.20619057 0.17763695
0000a0 84 28 cf 3e 67 89 d3 bd 86 0b ee bd d1 b0 fc be
       0.40460598 -0.10328942 -0.11623292 -0.4935365
0000b0 f1 c2 2d be fa 77 39 3e 43 0a b4 be ff f6 22 bd
       -0.16968895 0.18112174 -0.3516408 -0.039786335
0000c0 98 13 ef be a7 7e 0e bf fa c5 bf be 9b be a8 3c
       -0.46694636 -0.55662006 -0.37455732 0.0205987
0000d0 3d 10 d9 be 8b f7 c2 be ef 94 b2 3d fe e3 09 3f
       -0.423952 -0.38079485 0.08719813 0.53863513
0000e0 d7 31 5d 3e e8 b9 19 be 0d bc b4 3e 59 a1 d7 3e
       0.21601044 -0.15012324 0.3529972 0.42115286
0000f0 4c 31 26 be 75 65 a2 be e2 3b 97 3e bb e5 fa 3e
       -0.16229743 -0.3171803 0.29537874 0.49003395

model.encoder.layers.0.self_attn.out_proj.bias f4 [8]
000000 73 b3 1c 3d 37 de 94 3d 77 a6 e8 3d ae b9 74 3d
       0.038257074 0.072689466 0.11359876 0.05974739
000010 62 2f 12 bd 89 d4 94 bd fe bf 84 bd 95 66 49 bc
       -0.03568972 -0.072671 -0.06481932 -0.012292524

model.encoder.layers.0.linear1.weight f4 [64, 8]
000000 42 bf 06 3e 3f ae 02 be e1 44 25 3e c6 3f d2 bc
       0.13158897 -0.12761782 0.16139556 -0.025665175
000010 5e 3b 74 bd dd 2f 41 be 26 45 cc 3e 51 4d b8 be
       -0.05962693 -0.18865915 0.39896506 -0.35996488
000020 31 8d 83 bd 58 54 91 be c2 1b 25 be 13 b1 05 be
       -0.064234145 -0.28384662 -0.1612387 -0.1305583
000030 7b 82 0d 3e 7f 9c b3 bd c5 bd 23 be f7 a7 2c 3e
       0.13819306 -0.08770084 -0.1599036 0.16860949
000040 ea 23 d1 3c 11 47 06 bc e2 04 85 3e 45 18 71 be
       0.02552982 -0.0081956545 0.25980288 -0.23544414
000050 f0 67 13 be 9a 59 a0 be f4 06 5e be ae 7d fd 3d
       -0.14395118 -0.3131836 -0.2168234 0.12377487
000060 c9 df a2 bd 50 ad 2d bd fa 55 a2 bc 01 a9 15 3e
       -0.0795284 -0.04240161 -0.019816387 0.14615251
000070 42 9e a3 be a9 90 6c be fd 91 41 3e 10 90 b7 bd
       -0.3195668 -0.23102058 0.18903346 -0.089630246
000080 da d4 73 3e 4a 9b 5d bc 18 f0 48 3e 93 fa a2 3d
       0.23811665 -0.013525793 0.19622838 0.079579495
000090 2d 0b 98 3e 0d ca 72 bd b6 29 ba bd 87 68 4e ba
       0.29696026 -0.059274722 -0.09089987 -0.0007873852
0000a0 e9 7b 64 bb 2b ba 47 bc 0a ef 9e bd 66 74 ea 3d
       -0.0034863895 -0.012190382 -0.07760437 0.114479825
0000b0 d9 2a 06 3d c4 29 c2 bd be d5 05 3e 30 e3 ea 3d
       0.032755706 -0.094806224 0.13069817 0.11469114
0000c0 43 3e 2a bd 4e 1a 8f bd ec b2 43 3c 2d 24 c8 bd
       -0.041563284 -0.06987439 0.011944514 -0.09772525
0000d0 fb 99 7d bd 60 14 25 3d 09 98 32 be b3 2c 8d 3e
       -0.061914425 0.040302634 -0.1744081 0.27573165
0000e0 27 86 29 be 80 37 71 3e b1 2f 19 be 3b 2f 5b be
       -0.16555081 0.23556328 -0.14959599 -0.21404736
0000f0 f5 c9 23 3d bf 1c a0 be f2 88 94 3e 85 4e 8c 3e
       0.039987523 -0.31271932 0.2901073 0.27403656
000100 50 7d e1 3d 33 0a 38 be e6 ab 9d bd 02 e6 86 be
       0.110102296 -0.1797264 -0.07698803 -0.26347357
000110 4d 3f 94 be 07 2f 88 bc 52 16 1e 3e c2 2d 3a 3e
       -0.28954545 -0.016623987 0.15438202 0.18181518
000120 e4 d2 4b be aa b4 d8 bd 48 07 7d be 62 1e 32 be
       -0.19904667 -0.10581334 -0.24709809 -0.17394403
000130 e0 fa c9 bd f8 e5 74 be db bf ce 3d ee e4 1a be
       -0.09862304 -0.23915851 0.10095187 -0.15126392
000140 8e ef ad 3d 0e 16 04 be f8 23 fa bc 0c eb 5e be
       0.08492957 -0.12899038 -0.03053473 -0.21769351
000150 3e 2e a7 bd 72 d2 13 3d 49 38 86 3e 2e 12 e7 bc
       -0.08163117 0.03608937 0.26214817 -0.028206911
000160 d5 7f a7 bd 0f 1b 68 3c 2f 5d c7 3d ae 91 c9 3c
       -0.08178679 0.0141666075 0.0973457 0.024605598
000170 15 56 60 3e 66 8f 94 3e c5 71 f9 bd 80 52 64 3d
       0.21907838 0.29015654 -0.12179903 0.05574274
000180 36 ac 23 3e 18 98 eb 3d 00 84 87 3e 97 53 8c bc
       0.15983662 0.11503619 0.26467896 -0.017129702
000190 2a a8 a1 3d 92 28 95 be 77 14 2f bd 80 73 43 be
       0.07893403 -0.29132515 -0.042744126 -0.19087029
0001a0 4c ab cf bd e2 19 aa 3d 17 5a 1b 3e 51 9e 62 3e
       -0.10140094 0.08305718 0.15171085 0.22130705
0001b0 df 48 58 bd 7a 67 97 3e fd 02 7e be 88 ef 50 3e
       -0.05280387 0.29571134 -0.24805827 0.20403874
0001c0 10 53 3d 3d a1 ef 69 be 66 12 81 3e f2 4f 08 be
       0.046221793 -0.22845317 0.2520935 -0.13311747
0001d0 41 1c 5f 3c 6a b3 36 3e 14 12 07 be f7 dc 91 bb
       0.013617576 0.17841879 -0.1319049 -0.00445139
0001e0 f4 99 2f be 8a 29 e2 3d 99 35 9b bd 93 f4 66 be
       -0.17148572 0.11043079 -0.07578582 -0.22554235
0001f0 56 a9 3a be 7c df 3f be aa 9f 67 3b db c3 74 bd
       -0.18228659 -0.18737596 0.003534297 -0.059757095
000200 ec c8 24 be f8 90 07 3e 88 bf 01 3d 90 f9 ad 3d
       -0.1609227 0.13238895 0.0316768 0.08494866
000210 21 45 47 be 25 0e 85 bc f2 08 ad 3e ae fd 86 bd
       -0.19459964 -0.016242096 0.33795887 -0.06591354
000220 b9 26 26 be 1b 4a 57 3c 2a cb cf bd d0 5f 24 be
       -0.16225709 0.013140227 -0.10146172 -0.16052175
000230 85 91 01 be 19 3b c0 3d 8e 60 37 3d 02 95 a3 be
       -0.12653168 0.09386272 0.044769816 -0.3194962
000240 45 2c 9c be da 07 58 bc 91 f0 56 3e 30 97 1d bd
       -0.30502525 -0.013185466 0.20990206 -0.03847426
000250 9b b4 f6 bd bc c0 eb 3d b6 84 32 bc c6 35 7e 3e
       -0.120461665 0.115113705 -0.010895899 0.248252
000260 8d 60 53 be bc 10 20 3e ac 86 7b 3d 77 a7 45 3d
       -0.206423 0.15631384 0.06140773 0.04825541
000270 77 2e b7 be 4e 5b 2d bd 44 47 67 3e db 2b 02 be
       -0.35777637 -0.042323403 0.2258578 -0.12712042
000280 a4 2e 8b bd 67 20 16 3e ae 3a 5d 3e 28 df a2 3d
       -0.06796005 0.14660798 0.21604416 0.0795272
000290 79 d0 ca 3e f4 9b 00 3e b2 b9 1f 3e 27 c6 ce 3d
       0.39612177 0.12559491 0.15598181 0.10096388
0002a0 8b f7 51 3d 11 51 b1 3c c8 83 39 3d e5 4a 4d 3e
       0.051261466 0.0216451 0.045291692 0.20048101
0002b0 66 0c ae 3c fd 77 a1 3e 28 26 f4 3d a6 59 87 3e
       0.021246146 0.31536856 0.1192134 0.26435584
0002c0 46 2c 26 3e 59 e5 7f bd 9b 25 f0 3d 6e bf 6d be
       0.16227826 -0.062474582 0.11725923 -0.23217556
0002d0 05 08 0b be f5 e8 3a 3e c0 68 99 be 56 07 d8 bd
       -0.13577278 0.18252929 -0.2996273 -0.10548274
0002e0 ef 0e 37 bd 0f f3 45 3e f0 bb 3a 3d 82 b0 49 be
       -0.044691976 0.19331001 0.045589387 -0.19696239
0002f0 eb 59 61 3e e0 83 62 bd aa 75 5c 3e 55 e4 90 be
       0.22006957 -0.055301547 0.2152926 -0.28299204
000300 64 44 b9 bd 1a ef 86 3d fe 7d c7 3d 3d e3 96 be
       -0.090462476 0.06588574 0.09740828 -0.29470244
000310 f7 a6 90 3d ef 3e 39 3d 5f 0c 9b be eb 80 03 3e
       0.07063096 0.045226034 -0.30282876 0.12842147
000320 07 0d 86 3e 3e d3 9b bd 87 4d 87 bd be 5c 68 be
       0.26181814 -0.076086506 -0.06606584 -0.22691628
000330 49 f7 a7 bd 80 a0 1a be b7 21 be bd 52 0a 36 3e
       -0.08201463 -0.15100288 -0.09283774 0.17777374
000340 fe 45 d0 bd ae 3a de bd bd 84 de 3b 38 9f 10 be
       -0.101696 -0.10851036 0.006790726 -0.14123237
000350 de fc 8a 3e 11 c0 9a 3d d6 da 8c be 17 4b f4 3c
       0.27146047 0.07556165 -0.2751071 0.029820962
000360 c9 14 6f 3d 40 3e 85 be 8a 20 99 3e 38 f2 86 3e
       0.05836943 -0.26024055 0.29907638 0.26356673
000370 2d b8 e9 bd b6 7f 23 3e 6e 81 43 be 08 96 41 3e
       -0.11412082 0.15966687 -0.19092342 0.18904889
000380 bb b9 87 be b4 02 3c bc 33 26 eb bd 4c f5 58 3e
       -0.2650889 -0.011475254 -0.11481895 0.21187323
000390 2e 3e 64 3e 1f 00 81 3d f7 7b 8c 3e 57 b7 de bb
       0.22289345 0.06298851 0.27438328 -0.006796758
0003a0 3c dc b3 3c e8 28 ec bd be 5a 7e be 05 87 c6 3d
       0.021955602 -0.1153124 -0.24839303 0.09693722
0003b0 25 d1 72 3e 95 8a 55 be 7f 72 d8 3d db 55 86 be
       0.23712595 -0.20853646 0.105687134 -0.26237378
0003c0 88 42 16 3e 4a 9e 0a 3e 7c 54 ea 3c e3 3a c4 bb
       0.14673817 0.13536945 0.028604738 -0.005988465
0003d0 71 b1 88 bd b7 53 94 bd e2 aa 7d bc be ca 95 bd
       -0.06674469 -0.0724253 -0.015482636 -0.07314061
0003e0 53 07 1a 3d c7 f9 e2 bd 72 ef 9a bb c3 ec a3 be
       0.03760464 -0.110827975 -0.004728251 -0.32016572
0003f0 64 ba 67 bd 5a bc 32 3e 40 72 29 3d 44 3c 67 be
       -0.05657424 0.17454663 0.041368723 -0.22581583

model.encoder.layers.0.linear1.bias f4 [64]
000000 ba 6b 8c 3e 26 e3 80 3d 0c 41 a8 be d6 90 2e 3e
       0.2742594 0.06293325 -0.32862127 0.17047438
000010 ff b2 84 be 81 05 bf be 4d 09 fb 3c 49 3b 92 bd
       -0.25917813 -0.37308887 0.030644083 -0.07140214
000020 a0 20 a6 3d 5b 7e 83 3e cd 8f 2b be a3 4e 53 3e
       0.081116915 0.2568234 -0.16754074 0.20635466
000030 80 44 93 be 20 66 bd bd 43 36 ee bd 0f f9 3f be
       -0.287632 -0.092479944 -0.11631443 -0.18747352
000040 62 83 39 3e 67 56 a4 3d 68 0c 78 bd d7 08 de 3d
       0.18116525 0.080242924 -0.060558707 0.1084153
000050 2e a1 60 be 29 7e b3 be 67 a3 3a bd 8b 5f d9 bd
       -0.21936485 -0.3505719 -0.04556599 -0.106139265
000060 f3 3e 3e be 28 26 b5 be ee f7 74 3e 71 b4 2e 3d
       -0.185787 -0.35380673 0.23922703 0.04265255
000070 97 8b a2 be e7 4d 93 be e5 55 61 be 1f ec a2 bc
       -0.31747124 -0.28770372 -0.22005422 -0.019887982
000080 80 63 44 3e d1 15 aa 3e 8d 11 d0 be 68 b5 92 3e
       0.19178581 0.3321977 -0.4063839 0.28654027
000090 4a 1b 4a 3e dd b5 a1 3c 45 51 fa 3a 67 de d4 3d
       0.19736972 0.01974004 0.0019097707 0.103939824
0000a0 42 bf a1 3e e7 d9 5d be e5 95 32 3e 71 d4 b4 be
       0.3159123 -0.21665154 0.17439993 -0.3531833
0000b0 a5 50 4a 3e c5 95 9b be 3e a9 36 3e 2f f6 ac bd
       0.19757326 -0.30387703 0.17837998 -0.08445393
0000c0 bf 1a 04 3e e7 8e 2e be 63 1a a5 bd 32 9f 97 3e
       0.12900828 -0.170467 -0.080616735 0.29613644
0000d0 ce 3c c4 3e 37 d6 c0 3d 73 6e ab 3c a8 8a eb bc
       0.3832764 0.09415858 0.02092669 -0.02875264
0000e0 23 84 5b 3d a3 25 50 3d fb b5 ac 3d ea 19 fe bd
       0.053592812 0.050817143 0.084331475 -0.124072865
0000f0 fa 73 5e be 3a e2 e3 3d 99 ce 7b 3e b8 a0 7b 3e
       -0.21723929 0.11127134 0.2459053 0.24573028

model.encoder.layers.0.linear2.weight f4 [8, 64]
000000 80 db 56 be 69 dc 45 3e f1 3f 1a 3e c1 91 18 be
       -0.2098217 0.19322361 0.15063454 -0.1489935
000010 9a d2 b4 bc af 82 53 3e 93 b6 0e 3e 69 28 29 be
       -0.022073079 0.2065532 0.13936834 -0.16519322
000020 bc f5 89 3e 1a 5d 30 bd b9 1b 0b bd 11 3e d1 bd
       0.26945293 -0.04305754 -0.033961985 -0.10216916
000030 f1 ab c3 bc 22 19 9e 3e 28 7e c3 3d bf 08 dd bd
       -0.023885699 0.3087855 0.09545547 -0.10792684
000040 a4 61 82 3e fc 86 4c 3e 1d e7 b9 bd 1b cd ba bd
       0.2546512 0.19973367 -0.090772845 -0.09121152
000050 a2 c5 44 3e 6a 11 d1 bd 73 0c 87 3e f0 db 9f bd
       0.19216016 -0.102083996 0.26376686 -0.078056216
000060 00 cc 9a 3e b1 36 2a bd 0b 0c a9 bd 7c b7 8c 3e
       0.30233765 -0.041556064 -0.0825425 0.27483737
000070 5a 44 2d 3e 18 7a 4e 3e c3 5b 0f be de 9d 0c 3e
       0.16920605 0.20163763 -0.13999848 0.13732097
000080 1e fb 9f 3e 69 46 51 3e 51 70 34 3d 2b 21 80 3d
       0.31246275 0.20437016 0.044052426 0.06256326
000090 2a 4a 26 be 4c a9 45 be b3 da 9a 3e 59 77 42 be
       -0.16239229 -0.19302863 0.3024498 -0.1899084
0000a0 76 52 41 3d 8a c5 93 be da 30 2b be d0 85 5e be
       0.04719778 -0.28861648 -0.16717854 -0.21730733
0000b0 47 f5 7d 3e ad c2 27 3e 6e 73 31 be cd 8d 7f 3c
       0.24800597 0.16382857 -0.17329189 0.015597773
0000c0 37 11 0d 3e f5 04 13 be ea ae 4b be 15 46 6e bc
       0.13776098 -0.1435736 -0.19890943 -0.014543076
0000d0 1e 91 0e 3e ad 7a 4f 3e 03 05 c4 3d 68 9b 88 bd
       0.13922545 0.20261641 0.095712684 -0.066702664
0000e0 31 97 e8 3c 63 a8 68 3e ee cd d4 3d f9 a3 03 3e
       0.028392406 0.22720484 0.103908405 0.1285552
0000f0 fc 17 d9 3d d4 43 1c 3e 4d 97 9c 3e 17 fc 06 3e
       0.10600278 0.1526025 0.30584183 0.13182102
000100 8d 46 6a be 4f 48 3b be 85 20 83 3d b4 00 2e bd
       -0.22878475 -0.18289302 0.06402687 -0.04248114
000110 38 0a 72 bd 45 9a 8a be f3 5b 83 3c 67 54 73 3d
       -0.059091777 -0.27070823 0.016035056 0.059406664
000120 b9 1b 2a bd fc ab 04 3e 65 8c 15 3e 20 db 81 be
       -0.041530345 0.12956232 0.14604338 -0.25362492
000130 03 a1 6e 3e 83 a2 8a be 4d 12 f1 bd cb 92 7b be
       0.23303609 -0.27077112 -0.11771069 -0.24567716
000140 11 ff 27 bd 37 65 35 3e 29 c2 7b be 4b ce 75 bc
       -0.041014735 0.17714392 -0.24585785 -0.015002797
000150 01 93 63 bd a5 47 9f bd 66 65 fb bd 93 1b 80 3e
       -0.055560116 -0.07777337 -0.122751996 0.25021037
000160 6c ec 94 be 9e 90 03 be e9 55 6e 3b 05 90 70 be
       -0.29086626 -0.12848136 0.0036367124 -0.23492439
000170 10 a8 64 3e e5 76 03 3e 69 3c 8f be 50 cd 1d 3e
       0.22329736 0.12838323 -0.27975777 0.15410352
000180 f1 f0 cf be 1a b2 83 be 6a ab a7 bd f7 4d 0f bd
       -0.4061351 -0.25721818 -0.081869915 -0.034986462
000190 b6 cd 5e be 69 37 38 bc c9 bf 7b be cc 3a ec bd
       -0.2175816 -0.01124368 -0.24584879 -0.11534652
0001a0 54 44 bb 3d cb a0 a3 bc 38 be 39 be 1d f8 84 3d
       0.09143892 -0.019974133 -0.18138969 0.06492636
0001b0 49 1d 61 be ec 26 20 bb c1 1d 70 3c c4 2e 88 be
       -0.21983828 -0.0024437262 0.014655531 -0.2659818
0001c0 48 0f 6c 3d f9 b8 a8 bd 30 bb 91 be d9 03 e8 be
       0.05763176 -0.08238406 -0.28463125 -0.45315436
0001d0 31 f2 54 bd 7f 2a 4e 3e ca e1 84 3d 89 56 4e 3e
       -0.051988784 0.20133398 0.06488378 0.20150198
0001e0 90 f5 a8 be f4 68 46 3e 2b de 35 be 62 b8 19 be
       -0.3299985 0.19375974 -0.17760532 -0.15011743
0001f0 6f 84 15 be da 36 6e 3c f4 f9 8d be a3 a9 ca 3d
       -0.146013 0.014539445 -0.27729762 0.09895637
000200 5f 60 e3 3e 88 04 ff bc 97 ab ae 3e 85 ca 07 3e
       0.44409463 -0.03113009 0.34115288 0.13260849
000210 a6 40 f1 bd 5c 36 30 be 0b f0 8f 3e 07 ee 64 3e
       -0.11779909 -0.17208236 0.28112826 0.22356425
000220 74 d7 c1 3e ef 45 3c 3e 25 97 76 be 5c 94 a4 bd
       0.3785969 0.18386053 -0.24081095 -0.0803611
000230 73 ba 82 3e 30 52 fe 3d aa ff 66 3e 25 6c 7d bd
       0.25532874 0.1241802 0.22558466 -0.061870713
000240 fd 30 45 3d a0 68 83 be fa 3f da 3e ab b2 92 3e
       0.048142422 -0.2566576 0.42626935 0.28651938
000250 73 b6 2b be 24 36 9c 3e 46 2f e3 bd ac de ea 3d
       -0.16768818 0.30510056 -0.11093001 0.114682525
000260 c4 56 95 bd ca 18 b4 3e ca f0 e5 bc ad bf 93 3d
       -0.0729194 0.35175163 -0.028068919 0.07214294
000270 c6 72 7b be da 70 25 3e 15 c8 76 3c de 49 4b be
       -0.24555501 0.1615633 0.015062352 -0.19852397
000280 c1 4c ca 3d 79 7f 31 3d 35 64 b9 3d e1 91 05 3c
       0.09877921 0.043334458 0.09052316 0.008152456
000290 35 b8 8d 3d 69 32 f1 bd 1c 51 fe 3d 26 60 72 3d
       0.069199 -0.11777193 0.12417814 0.059173726
0002a0 30 7a a4 bd 95 e3 d6 3d bf b0 09 3e c3 5a 4b 3e
       -0.08031118 0.104926266 0.1344633 0.19858842
0002b0 aa a0 d1 3d 4b 54 cc bb 96 10 53 ba 2f 2f 98 bd
       0.10235722 -0.0062356344 -0.0008051483 -0.074308746
0002c0 3d a9 32 3e e7 12 8d 3e 7e 93 0f bd e8 ca 36 bd
       0.17447372 0.27553484 -0.03505277 -0.0446271
0002d0 5c 3b 1c 3e f8 c4 ce 3e 89 ef 99 3e d2 e5 c6 3e
       0.15257019 0.4038465 0.30065563 0.38847214
0002e0 90 40 b2 bd 8b 25 0e be 69 82 01 be 46 24 83 3e
       -0.087037206 -0.13881509 -0.12647404 0.25613612
0002f0 54 e2 ac 3e 4d 50 98 be a8 43 a2 3e d1 b5 af 3d
       0.33766425 -0.29748765 0.31692243 0.085796006
000300 02 8b ab 3d af 9f bc 3d 8a 3a 44 be 89 cd 07 be
       0.08376123 0.09210145 -0.19162956 -0.13261999
000310 1d 47 71 3e f1 02 5c bd c6 f2 53 3e f4 d9 85 3e
       0.23562284 -0.053713743 0.2069808 0.26142848
000320 a1 67 60 3e c9 d6 cf bc ac cb 27 3d 5a 1a 34 be
       0.21914531 -0.025370972 0.04096572 -0.17588177
000330 4d 88 90 be 70 e0 03 be 69 06 90 3d 4b bc 18 be
       -0.2822899 -0.12878585 0.07032473 -0.14915578
000340 64 16 a0 3b f9 be 32 be 94 0d df 3d 43 ff 03 3e
       0.0048854817 -0.17455663 0.10891262 0.12890343
000350 3e 92 d6 bd 8d 43 0b 3e f1 c1 53 3e f6 13 80 be
       -0.10477112 0.13599987 0.20679452 -0.2501523
000360 d9 0a e4 3b c7 c8 43 3e 92 ff ae 3d ed 7d e5 bd
       0.006959301 0.19119559 0.0854484 -0.11205659
000370 71 7d 06 3d 43 f8 15 be 41 01 d6 3c 26 82 b1 bd
       0.032834474 -0.14645486 0.026123645 -0.08667402
000380 86 1a 41 be 1c 7d 4d 3e fc ea fc 3d dd 93 96 bd
       -0.18857774 0.20067257 0.12349507 -0.073524214
000390 77 a7 ae bc 3b 04 1b be 2b 5d 97 bd fb a6 61 be
       -0.021320088 -0.15138333 -0.07390817 -0.22036354
0003a0 50 87 4e 3e 0d 12 39 3e 93 0a f5 3d 8c ea 54 3e
       0.20168805 0.18073292 0.119649075 0.20792598
0003b0 c8 dd bb bd 02 31 47 3e 5e 44 08 3a d1 ab 4b be
       -0.09173161 0.19452289 0.0005198176 -0.19889762
0003c0 34 aa 8b 3e b5 93 f0 3d 29 bc 3a bd e3 b7 00 be
       0.27278292 0.11746923 -0.0455896 -0.12570147
0003d0 9c a6 ae 3d e4 fe bf bd f4 ed 98 3d 0b b4 41 3e
       0.08527872 -0.093747884 0.07467261 0.18916337
0003e0 0e 82 12 be 32 c3 3f 3e 1d b8 2b 3d f0 68 5a be
       -0.14307424 0.18726805 0.04192363 -0.21329093
0003f0 58 fc f7 3d 11 72 1e be 82 c0 a4 bd b4 4c e0 bd
       0.121086776 -0.154732 -0.080445305 -0.1095213

model.encoder.layers.0.linear2.bias f4 [8]
000000 ae a8 29 3e 98 7d 23 be 39 ae 80 3e 15 89 10 3e
       0.16568252 -0.15965879 0.2513292 0.14114793
000010 e0 05 28 be 26 3a 00 3c d7 dd 37 bc 68 fa 83 bc
       -0.16408491 0.007826364 -0.011222324 -0.016110614

model.encoder.layers.0.norm1.weight f4 [8]
000000 a9 f4 6e 3f 12 0e 8d 3f 8f 77 84 3f bc bb 7e 3f
       0.9334207 1.1019919 1.0348986 0.9950521
000010 0f ae 50 3f e6 c3 66 3f 6e e4 6d 3f 7b 3c 8a 3f
       0.8151559 0.9014267 0.9292668 1.0799707

model.encoder.layers.0.norm1.bias f4 [8]
000000 26 a5 8d bd 93 44 ab 3c d6 9e b7 bc de 7a d8 bc
       -0.06916265 0.020906722 -0.022414606 -0.026425775
000010 ef 43 ea 3c 2f 13 5b bd 29 db cc 3c 59 92 90 3d
       0.028596846 -0.05348509 0.025006847 0.070591636

model.encoder.layers.0.norm2.weight f4 [8]
000000 4f e1 49 3f fc 58 6b 3f 1c 67 58 3f 12 37 7b 3f
       0.7885942 0.91932654 0.8453233 0.98130906
000010 fd 04 4e 3f 26 91 62 3f 04 89 88 3f ed 35 5f 3f
       0.8047636 0.8850273 1.0666814 0.8719166

model.encoder.layers.0.norm2.bias f4 [8]
000000 f7 c2 0c 3e da c6 0a bd d3 ed 37 bd 11 25 bc bc
       0.13746248 -0.033881046 -0.04490454 -0.022966893
000010 88 59 5f 3d 39 c3 a6 3d 90 a2 b3 3d ee f4 37 be
       0.054528743 0.081427045 0.08771241 -0.17964527

model.encoder.norm.weight f4 [8]
000000 8a 87 28 3f 9f d6 42 3f 4c a7 3d 3f e2 42 1a 3f
       0.65831816 0.76108736 0.740834 0.60258305
000010 52 b4 2c 3f 70 3b 47 3f a1 0a 24 3f c2 22 43 3f
       0.67462647 0.7782507 0.6407872 0.7622491

model.encoder.norm.bias f4 [8]
000000 5d 7a ba bc 89 38 86 3c 85 24 24 3d 86 56 81 bd
       -0.022763425 0.01638438 0.04007389 -0.06315331
000010 22 48 ab 3d 1b 23 cc bb 0a a7 9b 3d 0c 68 1c bd
       0.083633676 -0.006229771 0.076002195 -0.038185164

model.decoder.layers.0.self_attn.in_proj_weight f4 [24, 8]
000000 73 54 cc 3d 12 04 7c 3e f9 f0 55 be 0b 6a fb be
       0.09977045 0.24610928 -0.20892705 -0.49104342
000010 2c 50 1c be ed 55 b2 3e f9 c9 9b 3e 69 9c 59 bf
       -0.15264958 0.3483118 0.3042753 -0.8500429
000020 4c e6 82 3d b0 fd 7e be 77 be 16 3e d3 ff b9 bd
       0.06391582 -0.24901462 0.14721094 -0.09081998
000030 8b 1b ab 3d e9 ec c0 be c3 b6 c8 be cc c5 3f 3f
       0.08354863 -0.37680748 -0.39201936 0.7491119
000040 0b 40 6f 3d db 38 cf be 8d e7 0a 3f ab 9f e1 be
       0.058410686 -0.40473065 0.5425957 -0.4406713
000050 13 b7 85 3d 2f 21 0c 3e 97 00 95 3e e2 94 fe be
       0.06529059 0.13684534 0.29102013 -0.49722964
000060 8a 94 af bd 40 ac c0 3e ef 62 8c 3d 62 80 53 bb
       -0.085732535 0.37631416 0.068548076 -0.0032272567
000070 ce 50 e8 3e 32 96 53 be 68 0c 2c bf cf 23 06 3f
       0.4537415 -0.20662764 -0.6720643 0.5239839
000080 20 ef 1f 3e 2d a3 ab 3e 8e ce 99 3e 0d 02 07 be
       0.15618563 0.3352293 0.300404 -0.13184376
000090 6a aa 66 3f db 14 ae be 15 5f 80 bc f8 06 83 be
       0.9010378 -0.34000286 -0.015670339 -0.25591254
0000a0 2d 61 6d bd bb 05 28 3e 56 68 bf 3e fc 17 80 be
       -0.057954002 0.16408436 0.3738429 -0.250183
0000b0 d6 9b 29 3e ad 99 72 3e 15 f1 dd bb 4a 58 a5 be
       0.16563353 0.23691435 -0.006773124 -0.32293922
0000c0 3d bf d6 3e d3 5c 6f 3e 24 1b 9e 3e 47 27 32 be
       0.41942778 0.23375253 0.30880082 -0.17397796
0000d0 50 4d d4 bd 88 e2 42 bd 54 de 91 be c6 01 d8 bc
       -0.10366309 -0.04757932 -0.28489935 -0.026368033
0000e0 3d bd 4a 3f 84 f7 d5 bd 8a 95 1f be 7a fe 1e be
       0.79195005 -0.104476005 -0.15584388 -0.15526763
0000f0 36 65 89 3d 4a 41 a4 bd 29 ad 06 bf 83 89 3b 3d
       0.067087576 -0.080202654 -0.5260797 0.04578544
000100 da 25 dc 3e 6e 6b 94 be 2f d4 b7 3e 82 c2 dc be
       0.42997628 -0.28988212 0.3590407 -0.43117148
000110 22 a9 2d be 36 33 b6 bd ac 9d 2c bf 62 2c ad 3d
       -0.1695905 -0.088964865 -0.6742809 0.08455731
000120 41 f3 05 bf 47 87 ad 3d 6f fc 1f 3d 61 1a f0 3b
       -0.523243 0.08473068 0.0390591 0.0073273634
000130 50 e9 1f 3d 03 7b a4 3e 5a a8 db 3e 07 d0 16 bf
       0.039040864 0.321251 0.4290188 -0.58911175
000140 bb 07 5e be 7e eb d4 3e 4b b2 d6 3e 8c af b9 be
       -0.21682636 0.41585916 0.41932902 -0.36266744
000150 72 76 28 be 6c a3 f5 bd a1 5f bd 3e ec 0a f3 be
       -0.16451433 -0.11994061 0.36987022 -0.4746927
000160 2d 36 0e 3f 6d 13 a2 be 18 e1 b2 3e 15 19 e3 be
       0.55551416 -0.31655446 0.34937358 -0.44355074
000170 33 6a 15 3e 3c 0b f8 3d cf f3 3e bf 44 49 dd 3e
       0.14591293 0.12111518 -0.7459077 0.4321996
000180 29 79 64 3e 2f 26 11 3f ab e4 35 3f ca 19 9e be
       0.22311844 0.5669889 0.71052045 -0.3087905
000190 57 f2 63 3e be 04 69 3c 3c 1a fb bd 8c 9a 01 3f
       0.22260414 0.014222322 -0.12260863 0.50626445
0001a0 f9 59 94 be 18 37 0c 3f bf 77 00 3f 8d 22 a9 be
       -0.28974894 0.54771566 0.5018272 -0.33034173
0001b0 bb 07 24 be 72 30 4f b8 3e d9 61 be a6 14 0e be
       -0.16018574 -4.9397764e-05 -0.22055528 -0.13875064
0001c0 16 96 b3 3e 16 32 21 3f af 7f 5a be 73 2d 43 3e
       0.35075444 0.6296705 -0.2133777 0.19060306
0001d0 24 d1 3d be f8 b5 0f bb 42 bd 8a be 9c d7 7f 3d
       -0.18536812 -0.002192853 -0.27097517 0.06246148
0001e0 af eb fb 3d 0f 02 80 3e a3 e3 7f 3e 17 6b 14 bf
       0.123008125 0.2500157 0.2498918 -0.57975906
0001f0 f6 6e ee be aa b2 b4 be 4d b1 35 bf af 4e cd 3e
       -0.4656903 -0.3529256 -0.70973665 0.40099093
000200 32 d6 41 3e 06 9f 1a be e1 77 12 3e 16 14 54 3d
       0.18929365 -0.15099725 0.14303543 0.051776968
000210 73 37 3b bd 7c e0 44 be e3 f0 97 be ca 08 19 be
       -0.045707177 -0.19226259 -0.2967597 -0.14944759
000220 ff 14 0f be bf f8 a1 3d a3 16 41 3d 7c c7 19 bd
       -0.13972853 0.07908773 0.04714073 -0.03754376
000230 bf 93 53 be d0 9f 1d be 39 13 8d bc 34 49 5e 3c
       -0.2066183 -0.15392995 -0.01722108 0.013567258
000240 bb a4 e6 3d 63 f0 67 bd 76 83 92 be 35 28 c8 3b
       0.112618886 -0.056625735 -0.28615922 0.0061083087
000250 fb 00 30 3e e4 d1 fc 3d 5b f9 05 be d3 63 f4 3d
       0.17187874 0.12344721 -0.13083403 0.119331025
000260 1b 2c 88 bd 1c 8f 4e bc 6f 20 2d be cc 73 c5 bd
       -0.066490375 -0.012607362 -0.16906904 -0.09641227
000270 84 cf a2 3d 40 97 96 bd 0f 40 d7 bd b9 62 2c 3d
       0.07949737 -0.073530674 -0.10510265 0.042086337
000280 57 b5 d5 bd e5 68 43 3e fc a3 0b be 57 dd 42 bd
       -0.104349785 0.19082983 -0.13636774 -0.047574367
000290 b5 f3 29 3c ee 36 d9 3d e0 2f 28 3e 58 e0 49 3e
       0.010373046 0.1060618 0.16424513 0.19714487
0002a0 be 26 63 3e 54 ac 9b bd 60 88 9c 3e d1 35 25 3e
       0.22182748 -0.07601228 0.30572796 0.1613381
0002b0 43 42 ac 3e 38 fc 85 3d 68 9c c3 3d 44 a7 ea 3d
       0.33644304 0.065422475 0.095513165 0.11457685
0002c0 2d 61 60 bc 94 ba 4e bc e3 b3 1d bd 4e 6a de 3d
       -0.0136950435 -0.012617726 -0.03850163 0.1086012
0002d0 c7 fb 98 3c 33 82 b2 3d ab d0 c6 3d 3d fa 49 bd
       0.018674744 0.0871624 0.09707769 -0.04931091
0002e0 e8 78 99 bd bf b1 3a bd 33 7c 3e be 31 83 94 bd
       -0.07493764 -0.045579668 -0.18602066 -0.07251585
0002f0 06 b4 c0 bd 40 a4 4b bd fa 59 8e bc ba 2c a6 bd
       -0.09409337 -0.049717188 -0.017376889 -0.08114

model.decoder.layers.0.self_attn.in_proj_bias f4 [24]
000000 53 84 27 be 4f 60 b5 3e 2c e5 f9 3d cd b0 d6 bd
       -0.16359071 0.3542504 0.12201914 -0.10482941
000010 6b b9 0c bf f7 97 5d be e8 b0 42 3e fc f3 f2 3d
       -0.54970425 -0.21640001 0.19012797 0.118629426
000020 c6 34 d1 3a 69 fb 47 ba 91 ca 20 3b a6 04 0a ba
       0.0015961162 -0.00076287106 0.0024534801 -0.0005264975
000030 ec 7c 62 3a 16 aa 25 ba 2a 42 13 3a 70 d7 96 ba
       0.00086398306 -0.0006319595 0.0005617464 -0.0011508297
000040 64 8c 98 3d b6 9e 2c 3d d0 08 01 be 72 2f a3 bc
       0.074486524 0.042143546 -0.12601018 -0.019920085
000050 bc ba 28 3e 49 8e d2 bd 96 a3 40 bd 78 98 f0 3a
       0.16477484 -0.10281045 -0.047031008 0.0018355986

model.decoder.layers.0.self_attn.out_proj.weight f4 [8, 8]
000000 7a 99 fe 3d b0 d0 c3 3d 8f 26 d9 be 15 81 1d 3f
       0.12431617 0.09561288 -0.4241223 0.6152509
000010 59 63 ac be c7 2a 86 bc a1 0d 2b be 9a de ce bd
       -0.33669546 -0.01637782 -0.16704418 -0.10101052
000020 1a 0e 77 3e 7a cf da 3e ba 84 93 be f4 98 11 3e
       0.24126473 0.42736417 -0.288122 0.14218503
000030 cc a8 b1 3e 97 95 c5 3d d9 82 7c 3e b6 01 e6 3e
       0.34699094 0.096476726 0.2465929 0.4492318
000040 18 80 eb 3c 73 cd eb 3d aa 75 3c be c9 3c 97 3d
       0.028747603 0.11513796 -0.1840426 0.07384641
000050 4e a6 39 bf a3 d5 40 be d1 31 29 3e 5a ad 93 be
       -0.72519386 -0.18831496 0.1652291 -0.28843194
000060 1b f1 bb 3e a6 d4 04 be 98 2f 00 3e c9 ae 1a be
       0.36707386 -0.12971744 0.12518156 -0.15105738
000070 e0 f7 d5 3b fd c2 c3 bd cd 31 c4 bd a0 3f a4 3d
       0.006529793 -0.095586754 -0.09579811 0.08019948
000080 86 13 9a be 38 1d 21 bc fb 8f 2e be 92 82 0a 3f
       -0.3009302 -0.009833626 -0.17047112 0.54105484
000090 a2 88 95 3e 7e 61 93 3e 31 00 ce 39 76 ab 2c 3e
       0.29205805 0.28785318 0.00039291524 0.16862282
0000a0 c8 8d 77 3c 52 0e 53 be 20 fa 5f 3d 5e 4d a0 bd
       0.015109487 -0.20610932 0.054681897 -0.078272566
0000b0 e2 30 6f 3e fd 71 a3 bd e8 71 c4 bc 49 99 5e be
       0.23358491 -0.07980726 -0.023980096 -0.21738161
0000c0 87 6b cd be 6b c8 68 3e 29 31 2a 3e a8 fe 27 be
       -0.401211 0.22732703 0.16620316 -0.16405737
0000d0 3b f4 46 3c 46 1d f8 bd fc 54 db bd c4 24 9c 3e
       0.01214319 -0.121149585 -0.10709569 0.304968
0000e0 69 33 df be 1d 72 c3 3e 37 c0 98 3e cd 26 64 be
       -0.4359391 0.38173 0.29834148 -0.22280426
0000f0 6b fe 85 bd 10 83 c3 be 6a 70 8c bd cb 12 9f 3e
       -0.06542667 -0.3818593 -0.06857379 0.31069025

model.decoder.layers.0.self_attn.out_proj.bias f4 [8]
000000 6d 1d 70 3c 59 8d 64 3e f3 53 27 bd 6e 54 6a be
       0.014655453 0.22319545 -0.040851545 -0.2288377
000010 83 73 0a 3e 35 e7 bc bd 04 89 15 3e 98 62 0c 3d
       0.13520627 -0.09223787 0.14603049 0.034273714

model.decoder.layers.0.multihead_attn.in_proj_weight f4 [24, 8]
000000 24 82 1f bf eb 41 90 3e 82 a2 0a 3d c2 0d 27 3e
       -0.62307954 0.2817529 0.033846386 0.16313842
000010 3a f2 9a 3e 99 54 a2 3e f0 dc eb bd 4b cb a0 be
       0.3026293 0.31705168 -0.1151675 -0.314051
000020 a4 b8 1d bf 9b 47 d4 be 90 0c a8 be 02 5c af 3d
       -0.61609864 -0.4146088 -0.32822084 0.08562471
000030 8d e1 59 3e d7 65 b1 3d 09 67 26 be a0 85 0c 3e
       0.21277447 0.086620025 -0.16250242 0.13722849
000040 b9 07 7c 3e be e4 b8 be 5f d6 bd be 7f 8a 1e be
       0.24612321 -0.36112016 -0.37077615 -0.1548252
000050 ef f8 98 be e8 cd e6 3e 60 cd 95 3e a1 73 4f be
       -0.2987742 0.4507897 0.2925825 -0.20258953
000060 f6 c8 04 be 23 81 ef 3e a7 e0 4f be 06 3f 16 bf
       -0.12967286 0.4677821 -0.20300542 -0.58689916
000070 80 40 ad bd 4b c6 9b bd 98 fb 11 be de b1 f2 3e
       -0.08459568 -0.07606181 -0.14256132 0.47401327
000080 a9 a7 c5 be 58 14 8b be 4f 89 51 be 5d 21 d4 3e
       -0.38604477 -0.2716396 -0.20462535 0.41431704
000090 a7 45 c3 be 72 90 af 3e fe 05 c0 3e 02 fe 0c bc
       -0.38139078 0.3428989 0.37504572 -0.008605482
0000a0 92 3a 00 3f 9b 16 57 bd 17 2b dd be e4 fc 72 3e
       0.5008937 -0.052511793 -0.43196937 0.23729283
0000b0 3c 5c 7d be e0 a0 e2 3d 86 f0 d5 be 3b 2f 00 3d
       -0.24742216 0.11065841 -0.41785067 0.031295042
0000c0 31 9e fd be 99 28 b3 3e 76 37 51 be 84 f2 7e be
       -0.49534753 0.3499191 -0.20431313 -0.248972
0000d0 de 52 d9 3e 78 64 e3 be e6 13 03 3e 5d 2a 01 3f
       0.42446035 -0.4441259 0.1280056 0.50455266
0000e0 3e f2 8c 3e 5e ba 6a be 63 a0 20 bf a1 cb 06 3f
       0.27528566 -0.22922656 -0.6274473 0.52654463
0000f0 c0 6e 2a 3c 53 e0 07 be eb 52 ac 3e 78 4c 3b bf
       0.010402381 -0.13269167 0.3365701 -0.7316356
000100 bf 45 ac bd 4b 13 f4 3d 26 12 a8 be c7 d9 35 be
       -0.084117405 0.11917742 -0.32826346 -0.17758857
000110 33 04 e8 be 20 e7 90 be f1 a4 c7 be d4 d4 06 bf
       -0.45315704 -0.28301334 -0.38993028 -0.526685
000120 4e ce 71 3e e7 b3 ba 3e 40 4c 8f be 4c b3 2d be
       0.23613855 0.3646538 -0.27987862 -0.16962928
000130 2a 38 2f be ba 0f 08 3e 4e 5b 04 be 4c cb 7e be
       -0.17111269 0.13287249 -0.12925455 -0.24882239
000140 04 e8 2a be 53 77 88 3c 24 02 e8 bc 7b 2c 00 3f
       -0.1669007 0.01665846 -0.028321333 0.5006787
000150 5e ba 85 be b2 d5 e2 be 4a 43 0f 3d 6b ad 0c be
       -0.2611875 -0.44303662 0.03497628 -0.13738029
000160 d8 fd 50 be 80 0e 01 bf 4b 51 6c 3e 05 4c e5 be
       -0.20409334 -0.5041275 0.23077886 -0.4478456
000170 aa 16 81 3e 0f 90 c8 3e c5 85 45 3b f8 24 60 be
       0.25212604 0.39172408 0.0030139547 -0.21889102
000180 d7 36 45 be 1b be cf be f8 32 f3 3e fe a6 91 3d
       -0.19259201 -0.40574726 0.47499824 0.07111929
000190 75 c8 9f 3e 26 00 c1 bb d5 07 de 3c ac 0f 72 3d
       0.31207624 -0.0058899103 0.027103344 0.059096977
0001a0 77 a0 51 3e 71 c7 23 3d cf d6 60 bd ba 34 18 be
       0.20471369 0.039985124 -0.054892357 -0.14863864
0001b0 c0 91 a9 be 4f 8b ed be fb 0f d7 3e 02 6f 1e bf
       -0.3311901 -0.46395347 0.4200438 -0.61888134
0001c0 0d 3c cf 3e ee c8 41 3f 50 cf 21 bf 62 7e e2 3e
       0.40475503 0.7569722 -0.6320696 0.44237047
0001d0 72 4a 2f be 6a ef 27 3f 44 3d a5 be a6 31 6b bd
       -0.17118242 0.6559969 -0.32273304 -0.057420395
0001e0 7d d4 97 3e 04 92 16 bf d6 6b 2d 3d 67 d6 b4 be
       0.29654303 -0.5881655 0.04233917 -0.35319826
0001f0 a8 1b 53 3e 50 8e 23 bf 36 e1 4a 3d 50 7f 03 3f
       0.20616019 -0.63889027 0.049531184 0.5136614
000200 ac 13 79 be c1 c9 82 be 80 04 8e bd c0 a6 20 be
       -0.2432391 -0.2554455 -0.06934452 -0.1568861
000210 98 67 a5 3d b9 f2 4d bd 94 29 f7 bd 8d c6 ac bc
       0.080763996 -0.050280306 -0.12068477 -0.02109077
000220 12 5f 1d be 27 e5 1c be b8 64 35 3d 0a fa 63 bd
       -0.15368298 -0.1532179 0.044285506 -0.055658378
000230 65 03 48 3e e7 ec 13 3e 8a bb d8 bd 67 de 0f 3e
       0.19532545 0.1444584 -0.10582645 0.14049684
000240 8b e1 2b 3d d9 7d bd 3c 5b 6b a5 3d a2 bb 1f be
       0.04196314 0.023131298 0.08077117 -0.1559892
000250 5f a3 a1 3d 03 0b 51 3d 4b a5 4b bc dc 80 07 3e
       0.07892489 0.051035892 -0.012429546 0.1323275
000260 74 e5 f6 3c cc 66 17 3e ae 78 7e bd d6 45 88 3e
       0.030138709 0.14785308 -0.062126808 0.2661578
000270 eb 52 8a bc a9 83 ba bd bc 2e 17 3e 99 9d db bd
       -0.016885241 -0.091071434 0.14763921 -0.10723419
000280 96 42 28 be 5e 8d 2e be 97 23 09 bc 49 32 d6 bd
       -0.1643165 -0.17046115 -0.008370302 -0.1045881
000290 21 2d b0 3d fc 89 c2 3c 8c 27 86 be ab a6 80 bd
       0.08602358 0.023747437 -0.26202047 -0.062817894
0002a0 b7 f4 57 3d ee 11 bb 3d 36 c0 90 3d 49 7e 99 3d
       0.052723613 0.09134279 0.07067911 0.0749479
0002b0 5e 58 1d 3e 09 20 15 3e 74 05 d1 3b a2 fe 07 3e
       0.1536574 0.14563002 0.006378824 0.13280728
0002c0 ab d0 3f bd f9 95 f0 3d 73 05 6f bd 9c 86 62 3e
       -0.04682986 0.11747355 -0.058354806 0.22121662
0002d0 fc 32 c3 bd 36 c7 11 3e 8b b3 10 be f2 d2 f8 bd
       -0.09531209 0.14236149 -0.1413099 -0.121496096
0002e0 20 04 a8 ba 45 d5 40 3e e2 3b 78 bd 97 b1 9c 3e
       -0.0012818612 0.18831356 -0.060603984 0.3060424
0002f0 1e 2e ab bd 94 3e 62 3e b0 8b 93 bd 88 76 a1 bd
       -0.083584055 0.22094184 -0.07204378 -0.07883936

model.decoder.layers.0.multihead_attn.in_proj_bias f4 [24]
000000 61 0f 4f be 27 da 4d be 89 d6 c8 3d ae 6a 08 3d
       -0.2022071 -0.2010275 0.09806544 0.033304863
000010 1d 40 42 be 4c 6e 13 3d b4 85 d5 bd d8 60 7a 3e
       -0.1896977 0.03599386 -0.104258925 0.24451005
000020 ee c5 ee 3a 96 10 8d 3a 44 36 97 3a 5a 56 c0 ba
       0.0018216947 0.0010762389 0.0011536558 -0.0014674172
000030 5d 12 82 3a 61 e3 4f ba 59 0d 26 37 5a 1e 24 b8
       0.0009923686 -0.00079303054 9.897479e-06 -3.9128914e-05
000040 5a 27 07 3e 85 6c 81 ba 3d b3 ff bc 1a fc 9e 3c
       0.13198605 -0.000987426 -0.031213397 0.01940732
000050 00 5d d2 bc 80 68 b7 3c 70 5f d3 3c a1 4f b3 3c
       -0.025679111 0.022388697 0.025802344 0.021888556

model.decoder.layers.0.multihead_attn.out_proj.weight f4 [8, 8]
000000 8e 79 12 3f cd 8c ba be d1 5c 01 3e 64 3d 19 3d
       0.5721673 -0.36435547 0.12633063 0.037412062
000010 a6 88 8f be ec 94 8d 3e a4 09 ab 3e c9 22 80 be
       -0.28033942 0.2765268 0.33405793 -0.2502654
000020 81 5f 93 3d ea 74 a3 be b2 75 c8 3e 6d 43 46 3d
       0.0719595 -0.31925136 0.39152294 0.048404146
000030 17 44 a1 3e b0 b1 fe 3e ad 46 be be 61 21 5f 3e
       0.3149726 0.4974494 -0.37163296 0.21790077
000040 d7 36 5d be 69 24 6f 3e 4e cc 01 bd 2e 38 59 3e
       -0.21602951 0.23353733 -0.03168898 0.21212837
000050 00 cf ba 3b 42 93 82 be 5c 2d fc 3c f3 eb a2 bd
       0.005700946 -0.25502974 0.030783348 -0.0795516
000060 93 5d 10 be 48 ad 54 3e 0a a1 9f 3e ff 15 92 3e
       -0.14098196 0.20769227 0.3117755 0.28532407
000070 c2 49 4b bd cc 4c f8 be c5 7c 1d be aa cf dc bd
       -0.049630888 -0.4849609 -0.15379627 -0.10781796
000080 2a 2b f5 3d 6d 87 4d be e7 d3 5b 3e 4a ba 62 be
       0.119711235 -0.20071192 0.21467553 -0.22141376
000090 9d bb 51 be a2 d8 da 3e 1d af 8e be 54 81 b2 3e
       -0.20481725 0.42743403 -0.27867976 0.34864295
0000a0 63 2f 95 3c a8 d7 74 3d 2f 59 0b bd f1 5c 39 be
       0.018211072 0.05977598 -0.0340206 -0.1810186
0000b0 88 ba 75 be e8 55 76 3e 9c 6e 81 3e 6a 86 6f be
       -0.23996937 0.24056208 0.252797 -0.23391119
0000c0 e7 97 a7 be b9 5a a2 3e a0 ef e3 3d cb 3a f3 bd
       -0.3273308 0.3170984 0.11129689 -0.11876448
0000d0 75 ff f1 bd a9 e2 87 be 81 0f 97 bc d2 0d 7f 3e
       -0.11816303 -0.26540115 -0.01844001 0.24907616
0000e0 d1 7f 1b 3d 89 82 1e be 7a 1a ad 3e 3c 97 cf bd
       0.037963692 -0.15479483 0.33809263 -0.101362675
0000f0 ef 67 c6 bc be 71 9f bd a5 29 68 3e b7 cd 77 3d
       -0.024219481 -0.077853665 0.22672136 0.06049892

model.decoder.layers.0.multihead_attn.out_proj.bias f4 [8]
000000 06 e2 ae b9 06 bd 75 3e fd 0e 03 bb 0d 9a 3c be
       -0.00033356267 0.23997888 -0.0019997947 -0.1841814
000010 8d 5b a4 3d 9b a2 d9 bd 44 43 00 3e ff 3d 34 bc
       0.080252744 -0.10626718 0.1252566 -0.011001109

model.decoder.layers.0.linear1.weight f4 [64, 8]
000000 e9 d5 37 3e 95 08 86 3d 77 8a e3 3c 7f 77 65 be
       0.17952694 0.06544606 0.027775986 -0.22408865
000010 88 61 13 3c 58 9b bf 3d 3f 0d 8d 3e a8 d8 2a be
       0.008995421 0.09355801 0.27549168 -0.1668421
000020 19 b1 9e bd 96 ac 78 be af 4e 94 be d7 99 e3 3c
       -0.077486224 -0.24284586 -0.2896628 0.027783317
000030 0b 74 94 bb 4a 56 24 3e 56 2a 8c 3e 86 3a 0f bd
       -0.004530435 0.16048542 0.2737605 -0.03496792
000040 73 13 47 3e 6c cf 86 3e 44 5c 2e bd 70 07 5c 3e
       0.19441013 0.26330125 -0.04256846 0.21487212
000050 3d 85 86 3d a1 d6 c3 3d dd 04 5e be 4b 2c 42 3e
       0.06568382 0.095624216 -0.21681543 0.18962209
000060 9c b3 84 be 22 e2 4d bc 73 3b 69 3c 58 ee 73 bd
       -0.2591828 -0.012566121 0.014235365 -0.059553474
000070 a5 aa 5b be e2 4c 53 bd 5b 23 7b bd 26 ba ab 3d
       -0.21451814 -0.051586993 -0.061313014 0.08385114
000080 83 1c 25 3c c4 b8 f7 3c 6b 1c 87 be e2 00 af bd
       0.0100775985 0.03023947 -0.2638887 -0.0854509
000090 e2 56 f4 3d 97 bb 65 3e 98 6e c4 be 22 37 9d bd
       0.11930634 0.22434841 -0.38365626 -0.076765314
0000a0 8e 7e 7f bb 2c 0e db 3d 05 f7 41 be 73 de 7e 3c
       -0.0038985345 0.106960624 -0.18941887 0.015555966
0000b0 18 23 3a 3e 67 8f 98 3d 7a 09 68 bd e6 bf 06 be
       0.1817745 0.07449227 -0.056649663 -0.13159141
0000c0 73 be 52 be 6b a1 5a 3c 4a d6 0b be e0 e0 9e 3e
       -0.20580463 0.013344149 -0.13655964 0.3103094
0000d0 e9 9c 6b 3e e4 4e 70 bd ca b9 c1 3d 66 7c fe 3c
       0.23009075 -0.058668986 0.094592646 0.031065177
0000e0 97 e7 52 3e 35 0f 82 bd 63 05 d0 bd b4 59 19 be
       0.20596157 -0.06350557 -0.101572774 -0.14975625
0000f0 a0 b6 8c 3e 07 a3 03 3e f3 a3 60 3e 3d 16 2d bd
       0.27483082 0.12855159 0.21937542 -0.042257536
000100 82 4f 38 be 1a 83 21 3e aa cb 0c 3e 7a 03 31 3e
       -0.1799908 0.15772668 0.13749567 0.17286482
000110 b6 5c 58 3d 53 e4 18 3e 8a 27 46 bd 70 69 49 3e
       0.05282279 0.14930849 -0.04837755 0.19669127
000120 99 88 db 3d 9b 47 d1 bd ba 95 89 3c 4b 13 b1 3d
       0.10719413 -0.10218736 0.016795028 0.08646258
000130 d0 41 97 3e 92 d4 59 be e5 fa 7a 3e e1 c7 35 be
       0.29542398 -0.21272495 0.24509771 -0.17752029
000140 3d 6f a6 be ba 87 2f be 98 15 86 3c 18 f8 3d 3e
       -0.32506743 -0.1714162 0.016367719 0.18551672
000150 e8 71 da bc 78 13 8f 3d 28 ae e4 bd 87 d3 d2 3d
       -0.026665643 0.06986135 -0.1116603 0.10294252
000160 d3 40 8f 3e 44 0f de bc e1 70 0f be ed 79 be bd
       0.27979144 -0.027106889 -0.14007904 -0.09300599
000170 ce a9 d4 bd 80 40 bb 3d 3e b1 68 be 59 7f 7a 3e
       -0.1038395 0.09143162 -0.22723863 0.24462642
000180 43 00 30 bd 43 cd 3d 3e a6 fb da 3d 32 7b d2 3b
       -0.042969 0.18535332 0.106925294 0.0064233774
000190 b6 c8 89 be 38 6c 46 3e cd 9a 1c 3d 91 6e 97 bd
       -0.26910943 0.1937722 0.038233567 -0.07394136
0001a0 82 9d 3f be 52 65 71 3d 03 69 7c 3e d5 60 eb 3d
       -0.18712428 0.058934517 0.24649434 0.114930786
0001b0 60 ee 77 3d 56 88 d1 3e a0 78 81 bd 4d e8 81 be
       0.060530066 0.4092433 -0.063218355 -0.25372544
0001c0 6d 65 03 be 5a 28 90 be 8d 10 97 bd aa e7 0a bd
       -0.1283166 -0.28155786 -0.07376204 -0.03391234
0001d0 cc 5f da 3c 95 14 b8 39 d6 27 61 3e 5f fd 14 3e
       0.026657008 0.0003511055 0.21987852 0.14549778
0001e0 34 52 36 be 26 b8 60 3e fe e6 81 3e 68 20 89 3e
       -0.17804796 0.21945247 0.25371546 0.26782537
0001f0 8e d8 0f 3e 7d 1b a7 3e 75 2b 3c 3e 1d f2 cd 3e
       0.14047453 0.3263816 0.18375953 0.4022378
000200 ef cf f0 3d d0 5a a1 3d 42 86 85 3e b4 2e a3 bd
       0.1175841 0.07878649 0.26078993 -0.07967892
000210 7c 66 89 3e 9a 01 6f be 70 3a ba bd 23 87 a3 bd
       0.26836002 -0.23340455 -0.09093177 -0.0798476
000220 09 47 01 be e4 c7 1e 3e c0 69 70 3e 01 aa 38 3e
       -0.12624754 0.1550594 0.2347784 0.18033601
000230 e0 9e b2 bd e8 5e 6d 3e 9b ac 00 3e 56 fd b5 3e
       -0.08721709 0.23180735 0.12565844 0.35544842
000240 57 c9 3b 3c cf 95 89 bc f5 e2 a0 3d 39 f5 95 be
       0.011461577 -0.016795067 0.078557886 -0.29288653
000250 a7 b7 47 3d 10 4f 40 bc fc 86 c6 3d 52 a6 03 be
       0.04875913 -0.0117376 0.09693715 -0.12856415
000260 0f 2c 1c be 41 2a 73 be 73 75 1c 3d 7f fd 49 3d
       -0.15251182 -0.23746587 0.038197946 0.04931402
000270 c4 22 8e 3e aa a4 15 be 81 67 1d bd 0d bc 16 be
       0.277609 -0.14613596 -0.038428787 -0.14720173
000280 98 d2 b2 3c 0c 30 01 3e f2 04 1b 3c 7e 7c ca bd
       0.021828935 0.12615985 0.009461628 -0.09887026
000290 59 87 1a 3d b7 71 de 3d 0e bc 38 be 96 4d 35 be
       0.037726734 0.10861533 -0.18040487 -0.17705378
0002a0 59 cd 4a bd a3 5c 57 bd c9 eb 1b 3e 08 f4 c8 bd
       -0.04951224 -0.05257858 0.15226664 -0.0981217
0002b0 d4 6d 5e be d1 ec 25 bd d7 06 19 be a0 46 b9 bd
       -0.21721584 -0.04050905 -0.14944015 -0.09046674
0002c0 05 5a 4e be 50 10 7e be ce c1 24 be 84 81 a8 bc
       -0.20151527 -0.2481091 -0.16089556 -0.02056957
0002d0 fc 38 1a 3e 36 63 29 bd 0e 22 01 be 29 1d 48 be
       0.150608 -0.04135438 -0.12610647 -0.19542374
0002e0 4b 6d 3d 3d 96 90 c7 3b 9c c6 2e be c5 d9 98 bc
       0.046246808 0.006090234 -0.17067951 -0.018658528
0002f0 e6 5f 4a bd 35 91 a9 bc ff 6f 8f be db 63 ab bd
       -0.049407862 -0.020699123 -0.28015134 -0.08368655
000300 a3 ad 1a 3e a3 6c e5 3c 57 3b 93 bd 2b 1c 31 be
       0.151053 0.028005904 -0.071890526 -0.17295901
000310 ea 1f 5e be c3 ba 8d 3b 07 50 98 3d e8 54 34 be
       -0.21691862 0.0043252422 0.07437139 -0.17610514
000320 ee 22 0f be 33 1e b2 be 6d 5c b3 bd e2 21 a0 3d
       -0.13978168 -0.34788665 -0.08757863 0.07818963
000330 96 b4 a0 3d 79 57 0e 3d 04 11 ca 3d bf 60 0c be
       0.07846944 0.03475139 0.09866527 -0.1370878
000340 87 e2 1a be d4 da 4f be 81 98 7c be 77 9d 05 be
       -0.15125476 -0.2029832 -0.2466755 -0.1304835
000350 b8 1a 0e 3e 14 82 29 3e 9e 61 c3 3d fa 84 03 3e
       0.1387738 0.16553527 0.095401034 0.12843695
000360 6f ad bd 3e ac de 71 3c e0 9c 99 bd 3f dd 2f 3b
       0.37046382 0.014762562 -0.07500625 0.0026834754
000370 03 66 d9 3c dd 4d 2f 3e 6c 11 d3 bd d7 e2 9d 3d
       0.0265379 0.17119546 -0.10306057 0.07709282
000380 6a 37 28 3e cf 9d 57 3e 8d ce 33 3e ec c8 37 3d
       0.16427389 0.21056293 0.17559262 0.04486935
000390 80 57 10 3e bf 83 06 3e c5 e6 11 3e d4 e9 f5 3c
       0.14095879 0.13136195 0.14248188 0.030018725
0003a0 81 95 5e 3d 7f df a7 3e 91 99 76 3d 8f 0f f5 3d
       0.054341797 0.327877 0.060205046 0.11965858
0003b0 20 2c b5 bc 26 b2 a2 bd 8e 19 58 be a5 85 25 3b
       -0.022115767 -0.07944135 -0.21103498 0.002525666
0003c0 7e 5c fc 3c ef 9a 08 be 4f 8b 3e 3e ac ac 9d 3d
       0.030805822 -0.13340352 0.1860783 0.0769895
0003d0 73 f6 65 3e e0 82 88 be 7f 75 64 3e 71 7a 91 bd
       0.22457294 -0.2666235 0.22310446 -0.07103432
0003e0 7e b9 32 bd 8f f1 3b 3b 08 b2 84 be 79 c3 83 3e
       -0.04363393 0.0028677916 -0.25917077 0.2573507
0003f0 d5 dc f3 bc 06 56 7d 39 bd 94 7d be 7d 6a 2c bd
       -0.029768387 0.00024160006 -0.2476377 -0.042093743

model.decoder.layers.0.linear1.bias f4 [64]
000000 e7 8b 3b bd e1 1a 06 be fe 94 35 be 1b 09 91 be
       -0.04578772 -0.13096191 -0.17732617 -0.2832726
000010 ae d8 3e be b5 d9 8a be 9c ce ab be 39 9c b1 be
       -0.18637344 -0.27119222 -0.33556068 -0.346895
000020 e0 f4 a4 be a0 9a 5a be 78 a5 d1 be 9d ca ba be
       -0.32218075 -0.21348047 -0.40946555 -0.36482707
000030 c3 a8 3a be 22 7a aa be f9 cb 5e bd 51 73 c8 be
       -0.1822844 -0.33296305 -0.054393742 -0.3915048
000040 48 1a 21 be 66 af 9c be 64 14 b8 be 74 db 33 be
       -0.15732682 -0.30602568 -0.35953057 -0.17564183
000050 18 c8 c9 3c be 82 56 be e6 00 cd 3b cb 88 9d be
       0.024631545 -0.20948312 0.0062562106 -0.30768427
000060 32 2a 34 be 81 31 3f be ab c9 93 be 71 c4 fc bd
       -0.17594221 -0.18671228 -0.28864798 -0.12342156
000070 3a c9 20 be da 83 5c be 0c 34 8a be 99 b5 eb be
       -0.15701762 -0.21534672 -0.26992834 -0.46036986
000080 6d e2 f3 bd 66 77 a2 be ba 95 9e bd b1 e2 0c bb
       -0.11908422 -0.3173172 -0.07743402 -0.0021497423
000090 a9 75 57 be 35 b1 2f be fd 09 69 bd db 34 6b be
       -0.21040978 -0.17157443 -0.05689429 -0.22969382
0000a0 33 22 a9 be b9 57 a9 be b8 eb c1 bd b0 a8 43 bd
       -0.33033904 -0.3307474 -0.09468788 -0.047768295
0000b0 72 80 8d be 55 23 b3 bd 97 6f 45 be 33 4c a8 3d
       -0.27637058 -0.087469734 -0.1928085 0.08217659
0000c0 4e 0c 02 bf f5 a8 49 be 5a 8c f5 be 31 8a 1b 3d
       -0.50800025 -0.19693358 -0.47958642 0.037973586
0000d0 a4 35 a1 bd 31 b1 30 be 08 4f 21 3d f3 ec b5 be
       -0.07871559 -0.17255093 0.03938201 -0.3553234
0000e0 0e 1b 92 be a6 0e 6f be 15 e6 51 be a2 e7 8c bd
       -0.28536266 -0.23345432 -0.20497926 -0.06880118
0000f0 6f 48 1a be cc a0 b8 be d3 42 49 be 6a 46 86 bd
       -0.15066694 -0.36060178 -0.19654398 -0.06556399
